checkpoint_critic_0.pth (torch_old, 83882 bytes, 9 tensors)

fcs1.weight f4 [128, 24]
0	0xbd1b1892	-0.03786523
1	0xbd979d8c	-0.074030966
2	0xbd36245b	-0.044468265
3	0xbc7ce17f	-0.015434622
4	0x3c48a541	0.012246431
5	0xbddaf2b1	-0.10690821
6	0x3d83b0a7	0.06430178
7	0x3d33a4b6	0.043858252
8	0xbde26292	-0.11053957
9	0x3ca27224	0.019829817
10	0xbd70df0f	-0.058806475
11	0xbd32702a	-0.043564
12	0xbd8244f0	-0.06360805
13	0x3be8f8d2	0.00710974
14	0x3d806b92	0.062705174
15	0x3cdba37e	0.026811358
16	0x3d1a7975	0.037713487
17	0x3d87151c	0.06595823
18	0x3cbd7db4	0.023131229
19	0x3d67d6a8	0.056601197
20	0xbc0ee265	-0.008720969
21	0x3e150f6e	0.14556667
22	0xbcd51c00	-0.026014328
23	0xbc360391	-0.011109249
24	0xbcacf00c	-0.021110557
25	0xbd4b7037	-0.049667563
26	0xbd89e59e	-0.06733249
27	0xbb1f2e85	-0.0024289202
28	0xb9b2f4c7	-0.0003413318
29	0xbdaf2a86	-0.085530326
30	0x3d4f2d3e	0.050580256
31	0x3c20cf3f	0.009815036
32	0x3d8921e0	0.06695914
33	0xbdfc449b	-0.12317773
34	0xbda7c59b	-0.08191987
35	0x3da9caf6	0.08290665
36	0xbdac78eb	-0.08421501
37	0xbc1e0155	-0.009643872
38	0xbd408d14	-0.047009543
39	0x3cffb0e7	0.031212283
40	0x3d3f32e4	0.046679392
41	0xbcb05d7c	-0.021528952
42	0xbc688ab0	-0.014193222
43	0xbd67aa7f	-0.056559082
44	0xbd755a59	-0.059900615
45	0xbd487a31	-0.048944656
46	0x3c9b0078	0.018921122
47	0x3db8e75c	0.09028503
48	0xbd3f4527	-0.04669681
49	0x3dabdfcb	0.083922945
50	0xba054e76	-0.0005085239
51	0xbb20f396	-0.002455925
52	0xbe4e0d7a	-0.20122328
53	0xbde46750	-0.11152518
54	0x3b32adb9	0.0027264191
55	0x3c0b0e7d	0.008487341
56	0xbc949ee3	-0.01814217
57	0x3d8f249f	0.06989407
58	0x3bfe9a07	0.0077698263
59	0xbc035ea9	-0.008018174
60	0xbe00ea79	-0.12589444
61	0x3d78e86c	0.06076853
62	0xbcffb829	-0.031215744
63	0xbca2f69a	-0.01989298
64	0x3dbf61e0	0.0934484
65	0xbba7000d	-0.0050964416
66	0x3c3a157a	0.0113576595
67	0xbdd3646a	-0.10321887
68	0x3c708422	0.01467994
69	0x3de04d3e	0.10952233
70	0xbc7e3fba	-0.015518123
71	0x3cc241fe	0.023713108
72	0xbc3cb212	-0.011517065
73	0x3d13ef65	0.036116976
74	0x3c2e9c18	0.010657333
75	0xbcaf1032	-0.021370027
76	0x3dfa25d6	0.12214248
77	0x3cc5f094	0.024162568
78	0xbc1c105d	-0.009525386
79	0x3c8b4f7c	0.017005675
80	0x3cefe245	0.029282698
81	0x3d9ed087	0.07754617
82	0x3d6c359a	0.057668306
83	0x3cb34766	0.021884631
84	0x3e339723	0.17538123
85	0x3c8fe447	0.017564906
86	0xbd6e642f	-0.05820101
87	0xbcb630e2	-0.022240106
88	0xbc04842e	-0.008088155
89	0xbdcfc5f9	-0.10145182
90	0x3c13d036	0.009021809
91	0x3d21758d	0.039418746
92	0x3ef521bb	0.47877297
93	0xba9a8892	-0.0011789969
94	0xbbbf63e1	-0.005840764
95	0xbc36c4be	-0.011155305
96	0xbd20260a	-0.039098777
97	0xbc96620c	-0.0183573
98	0xbd0298f8	-0.031884164
99	0x3c1d187c	0.009588357
100	0x3e3e2a9a	0.18570939
101	0xbc74a06d	-0.014930827
102	0x3ceaa2c2	0.028642062
103	0x3b950ac5	0.004548403
104	0x3d3d8280	0.046267033
105	0x3dcb54bf	0.099282734
106	0x3d5a5d28	0.053311497
107	0x3cd512d1	0.026009949
108	0x3e0cfa32	0.13767317
109	0x3cd7b3a9	0.026330786
110	0xbd7445cc	-0.059636876
111	0xbd35cd90	-0.044385493
112	0x3d537a5e	0.05163037
113	0x3bcc0ecd	0.0062273503
114	0x3c265a30	0.010153338
115	0x3c69653a	0.014245326
116	0x3d86fac2	0.06590797
117	0x3c529aa1	0.012854249
118	0xbc4a4777	-0.01234614
119	0x3b73c550	0.0037196465
120	0x3d9bfc9a	0.07616539
121	0x3d67d9ec	0.05660431
122	0x3bdbac3c	0.0067038815
123	0x3c8e0b0b	0.01733925
124	0xbd7e4621	-0.0620786
125	0x3c8199ea	0.015820462
126	0xbb04a5d5	-0.0020240445
127	0xbc5448ec	-0.012956839
128	0x3da50643	0.08057835
129	0x3d8380ea	0.06421073
130	0x3be4585a	0.00696854
131	0x3c4c8e36	0.012485078
132	0xbe013383	-0.12617306
133	0xbdc4a85d	-0.09602425
134	0xbcbfcce7	-0.023413135
135	0xbd60dc52	-0.054897614
136	0x3c8fca9a	0.017552663
137	0xbd86f887	-0.065903716
138	0xbccc337f	-0.024926899
139	0xbd49bebe	-0.04925417
140	0xbdf5bf1a	-0.1199934
141	0x3dea7f24	0.114500314
142	0x3c075b4b	0.008261512
143	0x3d1db444	0.038501993
144	0x3dd911bb	0.10599085
145	0xbd5e50b4	-0.054276183
146	0x3ce0de66	0.027449798
147	0xbcc85ad9	-0.024457382
148	0x3cd3aedc	0.025840215
149	0xbd675dc2	-0.0564859
150	0x3c397d7c	0.011321422
151	0xbd7c28d5	-0.061562378
152	0xbd1de975	-0.03855272
153	0x3ccc9b20	0.024976313
154	0x3b0c74ea	0.002143199
155	0xbd6ab92b	-0.057305496
156	0x3dc5454e	0.096323594
157	0x3c29ca6d	0.0103632035
158	0x3be2fed9	0.006927353
159	0xbd937825	-0.0720065
160	0xbd83f38a	-0.06442936
161	0xbd1e9227	-0.0387136
162	0xbca7647c	-0.020433657
163	0x3dc6fc0a	0.097160414
164	0x3d88d03f	0.06680345
165	0x3dc620ef	0.0967425
166	0xbb0dd967	-0.0021644474
167	0x3e0a1458	0.13484323
168	0x3ca7f3f9	0.020502077
169	0x3bfe3327	0.0077575627
170	0x3d917560	0.07102466
171	0x3c9f080a	0.019413013
172	0xbd7ba00f	-0.06143194
173	0xbd768e50	-0.060194314
174	0xbb335b11	-0.0027367512
175	0x3b934bd9	0.0044951257
176	0x3d0ef255	0.034899075
177	0xbcbab1d0	-0.022789866
178	0xbb81ae4b	-0.003957545
179	0x3d72ed3d	0.05930828
180	0xbdceda2d	-0.101002075
181	0x3c687f07	0.014190442
182	0x3c86dc1f	0.016462384
183	0xbc5f34af	-0.013623401
184	0xbd4b1da7	-0.049588826
185	0x3afb1182	0.0019154998
186	0xbd2c2148	-0.042023927
187	0xbd3b877c	-0.045783505
188	0xbd310c8a	-0.04322485
189	0x3d7ef196	0.062242113
190	0xbd954374	-0.07288256
191	0xbd3985ba	-0.045293547
192	0xbde13743	-0.109968685
193	0xbdd75437	-0.105141096
194	0xbd3fd606	-0.046834968
195	0xbb8120e0	-0.0039406866
196	0xbdb626b6	-0.08894102
197	0x3dde555a	0.10856123
198	0x3d9e2209	0.077213354
199	0x3d418b3b	0.04725192
200	0xbde57174	-0.1120328
201	0xbd8a9f72	-0.06768693
202	0x3b42e2fa	0.002973734
203	0xba772403	-0.00094276684
204	0xbdbf9def	-0.09356295
205	0x3be47553	0.006971994
206	0xbd436613	-0.047704767
207	0x3dce10bf	0.10061788
208	0xbde3d73c	-0.11125037
209	0x3cc386ae	0.023867931
210	0x3cf82985	0.030293236
211	0xbcf6ba80	-0.030118227
212	0xbd4cb57c	-0.049977764
213	0xbe1dc922	-0.15408757
214	0x38961cfa	7.157955e-05
215	0x3caf1681	0.021373035
216	0xbcd20002	-0.02563477
217	0xbd211d84	-0.03933479
218	0x3cd4e5de	0.025988515
219	0xbc75f2c7	-0.015011496
220	0x3c675d20	0.014121324
221	0xbc4ee849	-0.012628623
222	0xbcc79846	-0.024364602
223	0x3c9e9ec3	0.019362813
224	0xbd05c0b0	-0.032654464
225	0xbc93b9a9	-0.018032866
226	0xbc548f87	-0.012973673
227	0x3d5a90a3	0.053360593
228	0xbd374b8d	-0.044749785
229	0xbd4c3841	-0.049858335
230	0x3c812a35	0.015767196
231	0xbd59f927	-0.053216126
232	0x3d3059a3	0.043054234
233	0x3bd51933	0.006503248
234	0xbc800342	-0.015626553
235	0x3d2c342f	0.042041954
236	0x3d069272	0.032854505
237	0xbeaaa7dc	-0.33331192
238	0x3c6469ff	0.013941287
239	0xbc7f0f84	-0.015567664
240	0xbd6c74a8	-0.05772844
241	0xba3f4b9e	-0.00072973396
242	0xbdb26ae6	-0.087117955
243	0xbd0795ff	-0.03310203
244	0xbd6c2ad1	-0.05765802
245	0x3d6383a7	0.055545475
246	0x3bb6660e	0.005566365
247	0xbcfeb610	-0.031092674
248	0xbd28f4c4	-0.04124905
249	0x3cb8332f	0.022485344
250	0xbdb7ed4b	-0.08980807
251	0xbd30efff	-0.043197628
252	0x3b79c1f8	0.003811
253	0x3d55dee5	0.052214522
254	0xbb924fbd	-0.004465072
255	0x3d6659f1	0.05623812

fcs1.bias f4 [128]
0	0x3b7a0baa	0.0038153925
1	0xbbea555b	-0.0071512884
2	0x3d54a8c9	0.05191878
3	0x3e3cfe73	0.1845644
4	0xbe113c28	-0.14183104
5	0xbdad8a95	-0.08473698
6	0x3e010d72	0.12602785
7	0xbdc578d4	-0.09642187
8	0xbe070cd6	-0.1318849
9	0x3de1d77d	0.11027429
10	0xbdb71c9b	-0.08941003
11	0x3ddf2e47	0.108974986
12	0x3dced6d6	0.100995705
13	0xbdec247c	-0.11530396
14	0x3dbb239f	0.091376536
15	0xbe2741c1	-0.16333677
16	0xbe1840c1	-0.14868452
17	0x3c8fd529	0.017557697
18	0x3dd60a4f	0.10451185
19	0xbd37dcf5	-0.044888455
20	0x3d3f8279	0.046755288
21	0x3e2260da	0.15857258
22	0xbe43dfca	-0.19128338
23	0xbdc5b408	-0.09653479
24	0x3dfa0d20	0.12209535
25	0x3dd3cebe	0.10342167
26	0xbe0a5ee0	-0.13512754
27	0x3dae66ea	0.08515723
28	0xbe06f7ec	-0.13180512
29	0xbe4a9522	-0.19783452
30	0x3e4f9be2	0.20274308
31	0xbd88efa2	-0.06686331
32	0x3d8dc611	0.06922544
33	0xbe3b5276	-0.18293175
34	0x3e042e66	0.12908325
35	0x3da8fc7b	0.08251282
36	0x3e1db045	0.15399273
37	0x3de4d6d4	0.11173788
38	0xbde51c6a	-0.1118706
39	0xbd4554c6	-0.04817655
40	0xbd952863	-0.07283094
41	0xbe0618f5	-0.13095458
42	0x3d844a9f	0.06459545
43	0x3e354e3d	0.17705627
44	0xbde7f6d9	-0.11326379
45	0x3e23b872	0.15988329
46	0x3e2965fc	0.1654281
47	0xbd8e217d	-0.06939981
48	0x3e045ebb	0.12926762
49	0x3e7ba99f	0.24576424
50	0x3cf8c8e8	0.030369237
51	0x3d8205ab	0.06348737
52	0xbd4fa93c	-0.050698504
53	0xbd768353	-0.060183834
54	0x3e478a20	0.19486284
55	0xbe18e4f3	-0.14931087
56	0xbe6a5ae8	-0.2288624
57	0x3d0d18e8	0.03444758
58	0xbe20181c	-0.15634197
59	0x3d946a2f	0.072468154
60	0x3e2ae66a	0.16689458
61	0xbd40d9e2	-0.04708279
62	0xbe38cd33	-0.18047027
63	0x3d8074ae	0.06272255
64	0x3d65d817	0.056114282
65	0xbe328452	-0.17433289
66	0xbcc9806b	-0.024597367
67	0x3d98f273	0.074681185
68	0x3e3905c1	0.18068601
69	0x3d549253	0.05189736
70	0x3e2366a2	0.1595712
71	0xbd60b356	-0.054858528
72	0x3de38b34	0.11110535
73	0x3e59c70a	0.21267334
74	0xbd7344b0	-0.059391677
75	0xbc6e5a49	-0.014547893
76	0x3e08763d	0.13326354
77	0xbe039a9b	-0.12851946
78	0x3d0fe88c	0.035133883
79	0x3e165731	0.14681698
80	0xbbf114cf	-0.007357217
81	0xbd371a83	-0.044703018
82	0xbe375c5c	-0.17906326
83	0xba9d1962	-0.0011985714
84	0x3e3a7db4	0.18212014
85	0xbda3cf4b	-0.07998522
86	0xbbcefab0	-0.0063165054
87	0x3dba80d7	0.091066055
88	0xbe215c7e	-0.15757939
89	0xbe777a58	-0.24167764
90	0x3e12973a	0.14315501
91	0xbdab120d	-0.08353052
92	0x3e26ff4a	0.16308323
93	0xbd18240e	-0.03714376
94	0x3c165726	0.009176051
95	0x3cc82949	0.024433749
96	0x3e0d1f85	0.13781555
97	0x3df01831	0.11723364
98	0x3d19b51e	0.037526242
99	0x3e632ec8	0.22185814
100	0x3da02dc2	0.078212276
101	0xbd5e02ec	-0.054202005
102	0xbe11c1a3	-0.14234023
103	0xbdccb288	-0.0999499
104	0xbd9b0f80	-0.07571316
105	0xbd43251c	-0.047642812
106	0x3c508bb8	0.012728624
107	0x3bb832cf	0.005621291
108	0xbe0499c7	-0.12949286
109	0xbd860705	-0.065443076
110	0xbdd9ca07	-0.10634237
111	0xbdf7508e	-0.120759115
112	0x3dd9da81	0.106373794
113	0x3dd33d49	0.103144236
114	0x3d810eda	0.06301661
115	0xbd8cd53b	-0.06876608
116	0x3c1e13b3	0.009648251
117	0xbe19b52b	-0.15010516
118	0xbe2a36dd	-0.16622491
119	0x3d41cbe6	0.047313593
120	0xbdadf640	-0.08494234
121	0xbd1ee03f	-0.038788076
122	0xba103ac1	-0.0005501919
123	0xbe7372a2	-0.23774198
124	0xbe585421	-0.21125843
125	0xbe5111ec	-0.20416993
126	0xbd370556	-0.044682823
127	0x3e0249e0	0.12723494

fc2.weight f4 [128, 130]
0	0x3da31601	0.07963181
1	0x3d36b1d6	0.04460319
2	0x3de64c58	0.1124503
3	0x3da1e96f	0.07905852
4	0xbc4a8ed1	-0.012363152
5	0x3af4a7f2	0.0018665774
6	0x3d15e145	0.036591787
7	0xbd924a67	-0.07143097
8	0xbd74f464	-0.05980338
9	0x3c28a674	0.010293592
10	0xbd0787e2	-0.033088572
11	0xbc8298cf	-0.015942005
12	0x3c2edbb2	0.010672497
13	0xbd542506	-0.05179312
14	0x3dc4d3e3	0.09610727
15	0x3d1f6a86	0.038919948
16	0xbc6011b9	-0.0136761
17	0x3cb0a90e	0.021564987
18	0xbd71e335	-0.059054572
19	0x3d9aaa49	0.075520106
20	0x3e013388	0.12617314
21	0xbc7614e6	-0.015019631
22	0xbdc4a4b1	-0.09601725
23	0xbd49507d	-0.049149025
24	0xbd14f210	-0.03636366
25	0x3c919789	0.017772453
26	0xbd8adc3a	-0.06780286
27	0x3da72331	0.08161009
28	0x3d2738a9	0.04082552
29	0x3d8cfa3f	0.06883668
30	0xbd28401e	-0.041076772
31	0x3d414c32	0.047191806
32	0x3d87856e	0.066172466
33	0x3e2e69e3	0.1703258
34	0xbce1b6fb	-0.027553072
35	0xbc652e45	-0.013988082
36	0x3d93a888	0.07209879
37	0xbdba6c51	-0.09102691
38	0xbdada9db	-0.08479663
39	0x3cb95f89	0.022628563
40	0xbd3e2309	-0.04642013
41	0x3c93d5fb	0.01804637
42	0xbcfc0b0a	-0.030766983
43	0x3d84d9ec	0.06486878
44	0x3c78632b	0.015160362
45	0x3b88a20f	0.0041697095
46	0xbd479c21	-0.04873288
47	0x3dbc3849	0.09190423
48	0xbd9c400e	-0.07629405
49	0x3cea910b	0.028633615
50	0x3da79ac0	0.08183813
51	0xbd6a6aa3	-0.057230603
52	0x3d0e96e5	0.034811873
53	0x3c551df1	0.013007627
54	0x3d3fe25c	0.046846732
55	0x3d46462f	0.048406776
56	0x3d067b63	0.032832514
57	0xbd5ffb3c	-0.054682955
58	0x3d98f9c4	0.07469514
59	0x3cf546fb	0.029941073
60	0xbd7bc478	-0.061466664
61	0x3b6fca33	0.0036589026
62	0x3d9f9a19	0.07793064
63	0xbd36e64f	-0.044653233
64	0x3b17c8eb	0.0023160528
65	0xbd14696f	-0.03623336
66	0x3d94358e	0.07236777
67	0xbc9bad4d	-0.019003535
68	0xbd7e0303	-0.06201459
69	0x3d55cde0	0.05219829
70	0xbd349ee5	-0.044096846
71	0xbc8cba14	-0.017178573
72	0x3de8a249	0.113590784
73	0x3d91435e	0.070929274
74	0x3d9ae29e	0.07562755
75	0xbb70d78f	-0.0036749577
76	0x3ab88266	0.0014076948
77	0xbb0e2cfa	-0.0021694289
78	0x3d09d0cb	0.033646386
79	0x3de68dba	0.11257501
80	0xbd23e5ef	-0.040014204
81	0x3d793f41	0.06085134
82	0x3c3ab22b	0.011395018
83	0xbd1056c2	-0.03523899
84	0xbd51dbea	-0.051235117
85	0x3d907660	0.07053828
86	0xbc66f9ea	-0.01409767
87	0xbe2548d5	-0.16141064
88	0x3d7fc4fc	0.06244372
89	0x3db867e1	0.09004188
90	0xbd54f864	-0.051994696
91	0xbcc23ae9	-0.023709731
92	0xbd2a53a1	-0.04158366
93	0x3caf032b	0.021363815
94	0x3d8ea265	0.06964568
95	0xbcf96a38	-0.030446157
96	0xbc07df0b	-0.008292924
97	0x3d334f16	0.043776594
98	0xbcb8a00b	-0.022537252
99	0x3d483cbb	0.048886042
100	0xbbae4728	-0.005318541
101	0x3cca5a0c	0.02470114
102	0xbcfb1fa4	-0.030654736
103	0x3cf653de	0.030069288
104	0xbc379c56	-0.011206707
105	0x3cd65b1f	0.026166497
106	0x3d855fc5	0.06512407
107	0x3d985d15	0.07439629
108	0x3c3a74d3	0.011380392
109	0xbd4464c8	-0.047947675
110	0xbd85e011	-0.06536878
111	0xbc5bfeaf	-0.0134274205
112	0xbcdef3af	-0.027215807
113	0x3d8aff47	0.067869715
114	0x3d8891bd	0.06668422
115	0x3d598966	0.05310955
116	0x3d129989	0.035790954
117	0x3dad1137	0.08450549
118	0xbcfc226a	-0.030778129
119	0x3c95c5e5	0.01828284
120	0xbd56bf87	-0.05242875
121	0xbd51b8ea	-0.05120174
122	0xbc57b336	-0.013165286
123	0xbd835fe0	-0.06414771
124	0xbd092166	-0.033479117
125	0x3d91596f	0.07097136
126	0x3d588e58	0.052870125
127	0xbd694cf8	-0.05695817
128	0xbe0745b0	-0.13210177
129	0x3cdf2d5c	0.027243309
130	0xbdb352f7	-0.08756059
131	0xbb04ae4f	-0.0020245498
132	0xbbcf4a96	-0.00632603
133	0x3d6b5547	0.057454374
134	0xbd5535af	-0.05205315
135	0xb8a2f946	-7.771193e-05
136	0x3d54d26d	0.05195849
137	0xbd6e09dc	-0.05811487
138	0x3d8113e8	0.06302625
139	0xbc491cc0	-0.012274921
140	0x3c25a46f	0.010110005
141	0x3d3fa03a	0.046783663
142	0xbd13bb5a	-0.036067344
143	0xbd2a20c1	-0.041535143
144	0x3d0287ba	0.03186772
145	0xbd86116a	-0.0654629
146	0xbda11330	-0.07864988
147	0x3a2b117b	0.0006525737
148	0x3dc4f37e	0.09616755
149	0xbdcb9d1a	-0.09942074
150	0x3cea1e15	0.028578797
151	0x3d3678bf	0.044548746
152	0x3d16f40d	0.03685384
153	0xbd8e9d9f	-0.069636576
154	0x3c206d4b	0.0097916825
155	0x3c3268b0	0.010889217
156	0x3c2d74ed	0.010586959
157	0x3cbc7c12	0.02300838
158	0x3c227db3	0.009917664
159	0xbd50fa2f	-0.051019844
160	0xbc12187a	-0.0089169685
161	0x3d9872d5	0.074437775
162	0xbd30ea69	-0.0431923
163	0xbd42e105	-0.047577877
164	0xbd261968	-0.040551573
165	0x3cd39b0a	0.025830764
166	0x3d04b73f	0.03240132
167	0xbd0de124	-0.03463854
168	0x3d5b2072	0.05349774
169	0xbd0224dc	-0.031773433
170	0x3d76b546	0.06023147
171	0x3da1a049	0.078919
172	0xbd984846	-0.0743566
173	0x3d21369d	0.039358724
174	0xbda4aba0	-0.08040547
175	0xbd009d9d	-0.03140031
176	0x3c2cf026	0.010555303
177	0xbc2e4084	-0.010635499
178	0x3d7a8d4c	0.061169907
179	0x3bce5df7	0.0062978226
180	0xbc83ce3d	-0.016089553
181	0x3d0dabd2	0.03458769
182	0x3cfb0b22	0.030644957
183	0xbe0352d1	-0.1282456
184	0x3d817042	0.063202396
185	0x3db9e896	0.09077565
186	0x3d80d19f	0.06289982
187	0xbd2f2bf8	-0.04276654
188	0x3dbccddd	0.09218953
189	0x3d395294	0.04524477
190	0xbdbb844e	-0.091560945
191	0x3d8b314c	0.06796512
192	0x3a24e1e8	0.0006289766
193	0xbd19c8d7	-0.03754505
194	0x3c417a57	0.011808953
195	0x3cc8e71e	0.024524268
196	0x3d01d205	0.03169443
197	0x3c8daf84	0.017295606
198	0xbd2222de	-0.039584033
199	0x3c68e349	0.014214345
200	0xbd922553	-0.07136025
201	0xbd1862de	-0.037203662
202	0x3d72d7bb	0.059287768
203	0xbd1ff9bb	-0.03905652
204	0xbd4cfd0f	-0.050046023
205	0x3dc943d0	0.09827387
206	0xbc8c82dc	-0.017152242
207	0xbd90631c	-0.070501536
208	0xbd977a88	-0.07396418
209	0xbdab13d5	-0.08353392
210	0x3c984b60	0.01859063
211	0x3c6c8998	0.014437102
212	0xbbbef148	-0.005827103
213	0xbd94b759	-0.07261533
214	0x3d350b40	0.044200182
215	0x3cdd5507	0.027018083
216	0x3d7eaca4	0.06217636
217	0xbe12868a	-0.14309135
218	0x3d300d36	0.04298135
219	0xbcdd7076	-0.027031165
220	0x3d5edb34	0.054408267
221	0x3d3a2af5	0.045451123
222	0x3cde5b7f	0.027143238
223	0x3dc9e5e6	0.09858303
224	0xbd81526c	-0.06314549
225	0xbd200efb	-0.039076786
226	0x3d47bd5d	0.048764575
227	0xbdb5edd3	-0.08883252
228	0xbc6836b1	-0.014173196
229	0x3b8c307c	0.0042782407
230	0xbce28aae	-0.027654018
231	0xbc325554	-0.010884602
232	0xbc80497e	-0.015660044
233	0xbbc0403a	-0.0058670314
234	0xbc1a57d2	-0.009420352
235	0xbae3f715	-0.0017392362
236	0xbdeec666	-0.11658935
237	0xbc75c7d9	-0.015001261
238	0x3cb1b11c	0.021690898
239	0x3d298a66	0.041391753
240	0xbcc6b6a2	-0.024257008
241	0x3da71fa4	0.08160332
242	0xbde00ef7	-0.10940354
243	0xbc04f6f9	-0.0081155235
244	0xbd3e25aa	-0.046422638
245	0xbe874fd9	-0.26428106
246	0x3c92b81b	0.017910054
247	0xbca26e8f	-0.01982811
248	0xbd531c10	-0.051540434
249	0x3d4693e6	0.04848089
250	0xbd88f1fb	-0.06686779
251	0x3d4f5d4d	0.050626088
252	0xbbeb5e44	-0.007182868
253	0xbd81d60e	-0.06339656
254	0xbd1ff227	-0.039049294
255	0x3d7bcf4a	0.061476983

fc2.bias f4 [128]
0	0x3c341930	0.010992333
1	0xbc45632b	-0.012047569
2	0x3d1e766f	0.038687166
3	0xb9582690	-0.00020613731
4	0x3c9f863f	0.019473193
5	0xbd40d3c1	-0.047076944
6	0xbd844935	-0.06459276
7	0xbd14ebc4	-0.036357656
8	0x3d3a2847	0.045448568
9	0xbc5fc352	-0.013657408
10	0xbc1d7aa0	-0.009611756
11	0xbc766785	-0.015039329
12	0x3d4011c5	0.046891946
13	0x3d53e69f	0.05173361
14	0x3d51f0fd	0.051255215
15	0x3d39b91e	0.045342557
16	0xbd59b802	-0.053154
17	0x3d2afac9	0.041743074
18	0xbc617140	-0.013759911
19	0x3c99b4e6	0.018763017
20	0xbdc01814	-0.093795925
21	0x3cbc8e1c	0.023016982
22	0xbcf6bb24	-0.030118532
23	0x3c0211fa	0.007938856
24	0xbd36d07a	-0.044632412
25	0xbd8bf560	-0.06833911
26	0x3d4bab2f	0.0497238
27	0x3d186a02	0.037210472
28	0xbd261380	-0.04054594
29	0xbd96f7fd	-0.07371519
30	0xbdd3d956	-0.10344188
31	0xbd886593	-0.06659999
32	0x3da7bb46	0.081900164
33	0x3d8a280d	0.0674592
34	0xbcd2373b	-0.025661102
35	0x3d0e3b08	0.034724265
36	0x3cc5f390	0.024163991
37	0xbd3c7a7e	-0.046015255
38	0xbdaee281	-0.08539296
39	0xbe1a4ae5	-0.15067632
40	0x3d3d8e6f	0.046278413
41	0xb8a6ebe9	-7.9594385e-05
42	0xbdcba01b	-0.09942647
43	0xbd794b58	-0.06086287
44	0xba8a6192	-0.0010557643
45	0xbd87dc44	-0.06633809
46	0xbd19fef8	-0.037596673
47	0xbdee92f2	-0.11649121
48	0x3ce99c4f	0.028516917
49	0xbb8be921	-0.0042697345
50	0xbd51f4a8	-0.051258713
51	0xbcdd623a	-0.027024377
52	0x3d3b3810	0.045707762
53	0x3cc08931	0.023502918
54	0x3ba3d033	0.0049991845
55	0x3c1e4315	0.009659548
56	0x3cbf5165	0.023354242
57	0x3d431c16	0.047634207
58	0xbbfdff3c	-0.0077513736
59	0xbd8b2b0f	-0.06795322
60	0xbdd2e54f	-0.102976434
61	0x3d1a82dc	0.037722453
62	0xbd509aa0	-0.050928712
63	0x3d83b2a1	0.06430555
64	0x3d7f0fb1	0.062270824
65	0xbd0498dd	-0.032372344
66	0xbd56a3cb	-0.0524023
67	0xbcb2d6fa	-0.021831024
68	0xbd7cbab5	-0.061701495
69	0xbd0e726f	-0.0347771
70	0xbdc3876b	-0.09547313
71	0xbd36a411	-0.04459006
72	0xbb8b43e1	-0.004250035
73	0x3d0f9d0d	0.035061885
74	0xbe00d570	-0.1258142
75	0x3b9fd1d5	0.004877309
76	0xbdb72776	-0.089430735
77	0xbdbcafde	-0.092132315
78	0x3c6a221d	0.01429036
79	0xbdba7754	-0.09104791
80	0xbd016ba8	-0.03159681
81	0xbd981745	-0.07426313
82	0xbda7c91a	-0.08192654
83	0xbcda3315	-0.026635686
84	0xbd22ddf7	-0.039762463
85	0xbcda6229	-0.026658135
86	0x3b6bd40d	0.0035984546
87	0x3c582bc5	0.013194029
88	0xbd7e2e85	-0.062056083
89	0xbcb322b2	-0.02186713
90	0xbc1b500d	-0.009479535
91	0x3d4e02f3	0.05029578
92	0xbd4b09f9	-0.049570058
93	0xbc0b16fa	-0.008489365
94	0xbd118f8b	-0.035537284
95	0x3ce6adfc	0.028159134
96	0x3cd34f25	0.025794575
97	0xbd3884a9	-0.04504839
98	0x3ca3b411	0.019983323
99	0xbc6178d7	-0.013761721
100	0xbb8d0772	-0.004303866
101	0xbc9beb46	-0.019033086
102	0xbd8c5d91	-0.06853784
103	0x3d9a2bb7	0.07527869
104	0xbdfcb97b	-0.12340065
105	0xbd7b6b9c	-0.06138192
106	0x3d1983d8	0.03747925
107	0xbd7f47e7	-0.06232443
108	0x3d9eb76e	0.0774983
109	0xbd6a91ee	-0.057268076
110	0xbdae8910	-0.08522236
111	0xbd9c0816	-0.0761873
112	0xbd578e4a	-0.05262593
113	0x3d0684f6	0.032841645
114	0xbe27e46e	-0.16395733
115	0xbde1c316	-0.11023538
116	0xbd3ccb8f	-0.046092566
117	0x3d856353	0.06513085
118	0xbc95b8e3	-0.018276637
119	0xbd08d26c	-0.0334038
120	0xbd5aafc9	-0.053390298
121	0xbda444f4	-0.08020964
122	0xbd57ea9b	-0.05271397
123	0xbdfab13a	-0.122408345
124	0xbd055d07	-0.03255942
125	0xbceca567	-0.028887464
126	0x3d9493b9	0.07254738
127	0xbdaa6ebf	-0.083219044

fc3.weight f4 [1, 128]
0	0xbc81bec9	-0.015838044
1	0x3ccec3c1	0.025239827
2	0x3cc7f060	0.024406612
3	0xbc466fa8	-0.012111582
4	0x3ca80115	0.020508328
5	0xbcc2fd3b	-0.02380239
6	0x3cdebb7a	0.027189005
7	0xbd03c8dc	-0.032173976
8	0x3c9ec1f2	0.01937959
9	0x3cb993a6	0.022653412
10	0xbc964b47	-0.018346442
11	0xbc61fdfd	-0.013793466
12	0xbc66315e	-0.014049856
13	0xbc3a05df	-0.011353939
14	0x3c784d21	0.015155108
15	0xbbf18eb6	-0.007371749
16	0xbc6e4b7a	-0.014544362
17	0x3c8411af	0.016121713
18	0xbce677d0	-0.028133303
19	0x3c9a2c1b	0.01881986
20	0xbd0c0955	-0.034188587
21	0xbc932dd0	-0.017966181
22	0xbc137d24	-0.009002004
23	0x3c833fdc	0.016021661
24	0xbc2bbf7f	-0.010482668
25	0x3caf5685	0.02140356
26	0xbcae3ac4	-0.021268256
27	0x3c5152d6	0.012776097
28	0xbc00c1fa	-0.007858748
29	0xbbf038ab	-0.007330974
30	0xbd154d1e	-0.036450498
31	0x3c6707b2	0.014100956
32	0xbbd4b0c7	-0.0064908
33	0x3c8d37b8	0.017238483
34	0x3c5a8850	0.0133381635
35	0xbbe84d90	-0.0070893243
36	0x3c859b2a	0.01630934
37	0xbcfd1b96	-0.030896943
38	0x3d00d3a8	0.03145185
39	0x3e639276	0.22223839
40	0x3c945c2c	0.018110357
41	0x3c3c6c71	0.011500464
42	0x3d30225e	0.043001525
43	0xbccb18cb	-0.024792096
44	0xbd01bbcb	-0.031673234
45	0x3cce66c0	0.02519548
46	0x3c476171	0.012169228
47	0xbd21ae92	-0.039473124
48	0xbc1028dd	-0.008798805
49	0x3c3cd2c5	0.011524861
50	0x3c826484	0.01591707
51	0xbc8994ab	-0.016794523
52	0x3cbae4f5	0.022814253
53	0x3cd9b455	0.026575247
54	0x3d0210c0	0.031754255
55	0x3c889bfd	0.016675944
56	0xbc22b293	-0.009930271
57	0xbbb4ba81	-0.005515397
58	0xbc307019	-0.010768914
59	0xbbfa7ddf	-0.0076443995
60	0xbc4c88e9	-0.012483814
61	0xbc8aacb8	-0.016928062
62	0x3c9d9bfe	0.019239422
63	0xbcac39e9	-0.021023707
64	0x3d2bfea0	0.041990876
65	0xbc5762c5	-0.013146107
66	0xbc13873e	-0.009004412
67	0x3c3c21fb	0.011482711
68	0xbc99e7e1	-0.018787326
69	0x3c57fb8b	0.013182531
70	0xbc660347	-0.014038867
71	0xbcfc8805	-0.030826578
72	0x3cebd502	0.028788093
73	0x3c8ba1ae	0.017044868
74	0xbd59a6b9	-0.053137515
75	0xbbd4cada	-0.0064939084
76	0xbd0c830d	-0.034304667
77	0x3d01a9bd	0.031656016
78	0x3c37600a	0.011192331
79	0x3cc527f1	0.024066897
80	0xbc0c389e	-0.00855842
81	0xbc831454	-0.016000904
82	0xbcaaeafb	-0.020864
83	0x3cdc542e	0.026895609
84	0xbc8cffc0	-0.017211795
85	0x3ca319e7	0.019909812
86	0xbc432899	-0.011911535
87	0xbbb7cc6f	-0.005609087
88	0x3c222650	0.00989683
89	0x3cb0dd2e	0.021589842
90	0xbc9f025a	-0.019410301
91	0x3bf8fabe	0.00759825
92	0x3d2e3d02	0.04253865
93	0xbccfbd9f	-0.025358973
94	0xbc88d4e5	-0.016703079
95	0xbccd6ea4	-0.025077172
96	0x3c956f95	0.018241683
97	0xbce2d704	-0.027690418
98	0xbbe2cfc8	-0.006921742
99	0xbcf0d83f	-0.02939999
100	0x3d67ee04	0.056623474
101	0xbc84a4c3	-0.016191846
102	0x3cb553e0	0.022134721
103	0xbc8d694a	-0.01726212
104	0xbc989e56	-0.018630188
105	0x3db38ac5	0.087667026
106	0xbc2bcf75	-0.010486473
107	0xbbe5d593	-0.0070139854
108	0xbbd173d7	-0.006391983
109	0x3cc366bb	0.023852697
110	0x3d14679c	0.036231622
111	0x3c747ec5	0.014922802
112	0x3d438ceb	0.04774181
113	0x3c618561	0.01376471
114	0x3dc7aa79	0.09749312
115	0xbd2d0f5b	-0.042250972
116	0x3cc5e662	0.024157707
117	0xbc00a5e2	-0.00785205
118	0xbcdd6d85	-0.027029762
119	0x3cad010c	0.021118663
120	0x3d2e9d93	0.042630743
121	0xbca05c82	-0.019575361
122	0x3c94777c	0.01812338
123	0x3e489827	0.19589292
124	0xbb3bb254	-0.0028640227
125	0x3d40df67	0.047088053
126	0x3c66c0a0	0.014084011
127	0x3d1ba817	0.0380021

bn1.weight f4 [128]
0	0x3f57054f	0.83992475
1	0x3eb0766a	0.34465343
2	0x3d8cbfe1	0.068725355
3	0x3f87d788	1.061265
4	0x3e4c26f8	0.1993674
5	0x3f585fd7	0.8452124
6	0x3e1e9472	0.15486315
7	0x3dce6e13	0.10079589
8	0x3f6fa714	0.93614316
9	0x3efdd6e2	0.49578005
10	0x3f1cac43	0.6120035
11	0x3f06a465	0.52594596
12	0x3f136393	0.57573813
13	0x3f5f2d6b	0.8717868
14	0x3e2088c6	0.15677175
15	0x3f3b84cc	0.73249507
16	0x3eee5cf1	0.46555284
17	0x3f2f4f60	0.6848049
18	0x3d8fc624	0.07020214
19	0x3ee71f66	0.45141143
20	0x3ec71d8a	0.38889724
21	0x3ea57bdb	0.32321057
22	0x3e89e989	0.26935986
23	0x3ec5686f	0.3855624
24	0x3eb8f4e3	0.36124334
25	0x3ed7e576	0.42167252
26	0x3e9eb654	0.3099848
27	0x3f4404b5	0.7656968
28	0x3f2c335c	0.6726587
29	0x3f059b4f	0.5219011
30	0x3f53c346	0.8271984
31	0x3ea355ad	0.31901303
32	0x3f125e91	0.57175547
33	0x3dac68aa	0.084184006
34	0x3f4e6536	0.80623186
35	0x3e867633	0.26262054
36	0x3eea1de3	0.45725927
37	0x3e844288	0.2583201
38	0x3da6eca4	0.08150604
39	0x3dbe9b2e	0.09306942
40	0x3f2ae460	0.6675472
41	0x3f3372fe	0.7009734
42	0x3e527e91	0.20556094
43	0x3ea2561d	0.31706324
44	0x3ef78abe	0.4834804
45	0x3f695748	0.91148806
46	0x3eae81ae	0.34083313
47	0x3f0b2314	0.543504
48	0x3f4f523d	0.8098486
49	0x3f3c8d99	0.7365356
50	0x3f6fe5d1	0.93710047
51	0x3e26ac36	0.16276631
52	0x3e03be5f	0.1286559
53	0x3e2e07f4	0.16995221
54	0x3f43e0d6	0.7651495
55	0x3f24d632	0.64389336
56	0x3f0e3f2a	0.5556513
57	0x3f1d637c	0.61479926
58	0x3f225d41	0.63423544
59	0x3eaaad07	0.33335134
60	0x3f72e030	0.9487333
61	0x3f0046c5	0.50107986
62	0x3f16ecb6	0.5895494
63	0x3eacf1ab	0.33778128
64	0x3f3a2464	0.7271178
65	0x3f05f4a2	0.52326405
66	0x3efb800b	0.49121127
67	0x3f53899f	0.8263187
68	0x3f3ea80e	0.7447518
69	0x3f358f64	0.7092192
70	0x3f43da66	0.76505125
71	0x3f3cf083	0.7380449
72	0x3e437445	0.19087322
73	0x3e5f75df	0.21822308
74	0x3f38f240	0.72244644
75	0x3e798014	0.24365264
76	0x3e89cfab	0.2691625
77	0x3f576269	0.84134537
78	0x3f6a65d1	0.9156161
79	0x3e14af53	0.14520006
80	0x3ebbf7f9	0.36712626
81	0x3e885fe0	0.26635647
82	0x3f45bb44	0.7723887
83	0x3f090f50	0.5353899
84	0x3d42538a	0.04744295
85	0x3f43152f	0.762042
86	0x3f109f9f	0.5649356
87	0x3ee7205a	0.4514187
88	0x3efe1ac2	0.4962979
89	0x3f022a53	0.5084583
90	0x3f3da111	0.7407389
91	0x3ead80a5	0.3388721
92	0x3e118081	0.14209177
93	0x3de1b486	0.1102076
94	0x3e4770a7	0.19476567
95	0x3f35b811	0.7098399
96	0x3f1fd653	0.6243641
97	0x3f6bd92c	0.92128253
98	0x3e4278ae	0.18991348
99	0x3ec27322	0.37978464
100	0x3e940928	0.28913236
101	0x3f7c0983	0.98452014
102	0x3f17e31b	0.5933091
103	0x3dd4ea81	0.103962906
104	0x3eb92996	0.3616454
105	0x3e77f4cc	0.24214476
106	0x3f226f16	0.63450754
107	0x3f4e008d	0.8046959
108	0x3ebb8852	0.36627442
109	0x3dd87cba	0.10570665
110	0x3e9c7933	0.30561218
111	0x3db1f78f	0.08689796
112	0x3f79bed7	0.97556823
113	0x3d95f93c	0.07322928
114	0x3f05c3d4	0.52251935
115	0x3eacafe0	0.33727932
116	0x3ee59408	0.448395
117	0x3eb95909	0.3620074
118	0x3ef50b8a	0.47860366
119	0x3f50d453	0.8157398
120	0x3f142907	0.578751
121	0x3f0ddb30	0.5541258
122	0x3f40bbc9	0.7528654
123	0x3f2c1584	0.6722033
124	0x3f14d3b6	0.58135545
125	0x3eb3948c	0.3507427
126	0x3eb358eb	0.35028777
127	0x3d82c17b	0.0638456

bn1.bias f4 [128]
0	0xbb362462	-0.0027792682
1	0xbc5acfe4	-0.013355229
2	0xbd763856	-0.06011232
3	0x3ddc0f09	0.10745055
4	0xbd114d57	-0.035474148
5	0x3dedbd62	0.116083875
6	0x3d44d9fa	0.04805944
7	0xbd089441	-0.03334451
8	0x3cc50b52	0.02405325
9	0x3d8bdd1d	0.068292834
10	0xbd42f21e	-0.047594182
11	0x3d9d7c58	0.07689732
12	0xbbfaac6e	-0.0076499498
13	0x3b9279c3	0.0044700815
14	0xbb20a499	-0.002451217
15	0x3dafceae	0.08584343
16	0x3dda2fa8	0.10653621
17	0x3d5f3ec8	0.054503232
18	0xbd1190db	-0.035538536
19	0xbd375f3a	-0.04476855
20	0xbd077038	-0.033066005
21	0x3ce722cd	0.028214836
22	0xbd374771	-0.044745866
23	0x3d88d0b8	0.06680435
24	0x3b538a03	0.0032278306
25	0xbd41a9bd	-0.047281016
26	0xbda764f2	-0.08173551
27	0x3d925a80	0.07146168
28	0x3d254935	0.04035302
29	0x3d9a8e64	0.0754669
30	0x3de5cdbc	0.11220881
31	0xbca1bb3c	-0.0197426
32	0x3d6335e2	0.05547131
33	0xbbf6647d	-0.0075193034
34	0x3b9d578b	0.0048016957
35	0x3d725e86	0.059172176
36	0x3de1171e	0.109907374
37	0x3d91f6ef	0.07127177
38	0x3ae04699	0.0017110883
39	0x3c73f3e4	0.014889691
40	0x3c2dccce	0.010607911
41	0x3d1cb115	0.038254816
42	0x3dbc450b	0.091928564
43	0xbd9c1c96	-0.0762264
44	0xbd3c313f	-0.045945402
45	0x3d745b28	0.059657246
46	0x3d166c2b	0.03672425
47	0x3dba3291	0.09091676
48	0xbd4b11c0	-0.049577475
49	0x3cd0c1ce	0.025483038
50	0xbc18ea35	-0.009333183
51	0xbb86bf73	-0.004112178
52	0xbd03261b	-0.032018762
53	0x3b432cee	0.002978142
54	0x3da2e056	0.07952945
55	0xbd5c1079	-0.053726647
56	0xbd727fa4	-0.05920376
57	0x3d122b96	0.035686098
58	0xbda836fd	-0.08213613
59	0xbd83f60d	-0.06443415
60	0x3cc1e514	0.023668803
61	0x3c60540f	0.013691916
62	0x3d1618bd	0.036644686
63	0xbaf11353	-0.00183926
64	0x3d352456	0.044224106
65	0xbd1c1fed	-0.038116384
66	0x3deb45c7	0.11487918
67	0xbc91b575	-0.01778672
68	0x3d699b63	0.057032954
69	0x3caaacc1	0.020834329
70	0x3c8f8dd3	0.017523682
71	0x3cbf3f6c	0.023345672
72	0xbb8d627a	-0.004314718
73	0x3bc452eb	0.00599133
74	0x3da484fa	0.08033176
75	0xbd3f9460	-0.04677236
76	0x3d358497	0.0443159
77	0x3d056961	0.0325712
78	0xbcc068a8	-0.023487404
79	0xbd01fa0c	-0.031732604
80	0xbd00d921	-0.03145707
81	0xbd0e3f08	-0.03472808
82	0x3d69bcf8	0.05706498
83	0x3d70ba3c	0.058771357
84	0xbd629d12	-0.055325575
85	0xbd19f8d5	-0.03759082
86	0x3dc3c065	0.09558181
87	0xbb08767c	-0.0020822575
88	0xbda29669	-0.07938845
89	0x3b5a2d8e	0.0033291313
90	0xbd8418e6	-0.064500615
91	0x3d0a3327	0.03374019
92	0x3d088da4	0.033338204
93	0xbd310c0c	-0.04322438
94	0xbc07ff06	-0.008300548
95	0x3d78019f	0.06054842
96	0x3b70bd0e	0.003673378
97	0x3da44f3f	0.080229275
98	0x3c9bdb45	0.019025454
99	0x3daee7bd	0.08540294
100	0x3e039463	0.12849574
101	0x3d210302	0.03930951
102	0x3cc556a7	0.02408917
103	0x3d1d4f66	0.0384058
104	0x3cc2e241	0.023789527
105	0x3bc3e8cd	0.0059786798
106	0xbc06febc	-0.008239444
107	0x3e0b00e8	0.13574564
108	0xbd013bc6	-0.031551145
109	0x3d19cff9	0.037551854
110	0xbc349b2c	-0.011023324
111	0xbd8d6098	-0.069031894
112	0xbc279002	-0.010227205
113	0x3d903915	0.070421375
114	0x3d5c22cc	0.053744122
115	0x3d01abd9	0.031658027
116	0xbd70996c	-0.058740065
117	0xbb9ef675	-0.0048511573
118	0xbcd834f6	-0.026392441
119	0x3d53ae76	0.05168005
120	0x3d29b1f9	0.041429494
121	0x3d97ab08	0.074056685
122	0x3c99a0bf	0.018753408
123	0x3cab1aca	0.020886797
124	0x3c3c66f3	0.011499154
125	0xbd88ca63	-0.06679227
126	0x3ddd96cb	0.10819777
127	0x3d2d9296	0.042376123

bn1.running_mean f4 [128]
0	0x3f804232	1.0020201
1	0x3ec1c0bf	0.37842366
2	0x3f4c2370	0.79741573
3	0x40056c13	2.0847213
4	0x3f35672e	0.70860565
5	0x3e8a3186	0.26990908
6	0x3f65a095	0.89698154
7	0x3f757cf4	0.9589379
8	0x401a1892	2.4077497
9	0x3d334cc7	0.043774392
10	0x3f91dd09	1.139558
11	0x3f909f4b	1.1298612
12	0x3f7d9087	0.99048656
13	0x4016bb09	2.3551657
14	0x3e5a87c6	0.21340856
15	0x3fc4935d	1.5357472
16	0x3f293bd4	0.66106915
17	0x4019898d	2.3990204
18	0x3f669953	0.90077704
19	0x3dd81643	0.10551121
20	0x3fdc5d9c	1.7216067
21	0x3ef52c4c	0.47885358
22	0x3ebcca3f	0.36873052
23	0x3fd27793	1.6442741
24	0x3e44ee59	0.19231547
25	0x3f303b0d	0.68840104
26	0x3e4af15a	0.19818631
27	0x3feb70c4	1.8393788
28	0x3e341090	0.17584443
29	0x3ebc5eb4	0.36791003
30	0x3d7cc4d8	0.061711162
31	0x3fad6c4e	1.3548677
32	0x3f6f5328	0.9348626
33	0x3e843544	0.25821888
34	0x3ee1f3af	0.44131228
35	0x3fa6dcd0	1.3036137
36	0x3f81507d	1.0102688
37	0x3fddbba9	1.7322894
38	0x3f249630	0.6429167
39	0x3f85497d	1.0413052
40	0x3fcd8f15	1.605929
41	0x3eabeecb	0.33580622
42	0x3f40fd88	0.7538686
43	0x3eb3061c	0.349656
44	0x3fde74a0	1.7379341
45	0x3f9af13c	1.2104869
46	0x3e23f02b	0.16009586
47	0x3fa45d54	1.2840981
48	0x3f8167ea	1.0109837
49	0x3ee59319	0.4483879
50	0x4006b785	2.1049511
51	0x3fb48804	1.4104009
52	0x3f17fd0b	0.5937049
53	0x3c283eaf	0.010268851
54	0x3fe8d8ca	1.8191159
55	0x3fe48920	1.7854347
56	0x3f709d75	0.9399026
57	0x3f890a2a	1.0706227
58	0x3f93a9e1	1.1536218
59	0x3db7be21	0.08971811
60	0x3ec3572c	0.38152444
61	0x3f1bea3a	0.60904276
62	0x3f41753e	0.7556952
63	0x3f14b7b6	0.5809282
64	0x3e31ce5e	0.17363879
65	0x3fd5a2ec	1.6690345
66	0x3fbfe2c0	1.4991074
67	0x3ecdb3cd	0.4017624
68	0x3f1360e8	0.5756974
69	0x3ffc5a2c	1.9715018
70	0x3f46e7aa	0.7769724
71	0x3d3d4d45	0.046216268
72	0x3fcfda68	1.6238527
73	0x3e8f3ebc	0.2797755
74	0x3fed50ea	1.8540318
75	0x3f81b395	1.0132929
76	0x3fc9e965	1.5774351
77	0x3e0c2de7	0.13689385
78	0x3f1b7ea2	0.607401
79	0x3c81d0af	0.015846578
80	0x3f79f224	0.976351
81	0x3f1186aa	0.56846106
82	0x3ea0f837	0.31439373
83	0x3f9d9c5f	1.2313346
84	0x3f487722	0.7830678
85	0x3f221b4a	0.6332289
86	0x3ee4d3c4	0.44692814
87	0x3cc9cde7	0.024634315
88	0x3ea8b0b4	0.32947314
89	0x3e4d3164	0.20038372
90	0x3f2cb126	0.6745781
91	0x3e95c688	0.2925303
92	0x3ecd8e13	0.40147457
93	0x3ea91f8a	0.33031875
94	0x3f306153	0.68898505
95	0x3f5012c2	0.8127862
96	0x3feb9323	1.8404278
97	0x3fb9838f	1.4493273
98	0x3d2f1141	0.042741064
99	0x3f12070a	0.5704199
100	0x3fe6fb61	1.8045465
101	0x3e63f357	0.22260796
102	0x3f046b0d	0.51725847
103	0x3f72a5fe	0.94784534
104	0x3fa5be0e	1.2948625
105	0x3e089cb1	0.13341023
106	0x3f0a4058	0.5400443
107	0x3f1b5a40	0.60684586
108	0x3ed4bcff	0.41550443
109	0x3d12d792	0.035850115
110	0x3ecf0ac9	0.40437916
111	0x3f1a6aba	0.603191
112	0x3ea683e1	0.3252249
113	0x3e3e572b	0.1858794
114	0x3f0025e0	0.5005779
115	0x3d852739	0.06501622
116	0x3f33684f	0.7008104
117	0x3ecb5394	0.39712203
118	0x3f823f39	1.0175544
119	0x3ea4bd2c	0.32175577
120	0x3ead56e7	0.33855364
121	0x400a7478	2.1633587
122	0x3f9b08a9	1.2112018
123	0x3db54dca	0.08852728
124	0x3f3af14e	0.7302445
125	0x3f03a650	0.5142565
126	0x3e827739	0.25481585
127	0x3f601cc3	0.87543887

bn1.running_var f4 [128]
0	0x3ea98794	0.3311125
1	0x3f52fc96	0.82416666
2	0x3f81fe4e	1.0155733
3	0x40d6e100	6.714966
4	0x3f82083f	1.0158767
5	0x3e9e07f6	0.3086545
6	0x3f9688be	1.176048
7	0x403950c4	2.8955545
8	0x4083392f	4.1007304
9	0x3cf9a6b1	0.030474992
10	0x402ede26	2.7323089
11	0x3fe4a5a3	1.7863048
12	0x404c0966	3.1880736
13	0x41181f79	9.507684
14	0x3e55f9c3	0.20896058
15	0x404c5d35	3.193189
16	0x3fef8f13	1.8715538
17	0x410ca6c4	8.790714
18	0x40066908	2.1001606
19	0x3dee5cd3	0.116387986
20	0x405ab6db	3.4174106
21	0x3f82a1ba	1.0205605
22	0x3f11a1c6	0.5688747
23	0x4077bbb4	3.8708315
24	0x3e3a983c	0.18222135
25	0x400a06a0	2.1566544
26	0x3e6f1eb6	0.23351559
27	0x40b58945	5.6730065
28	0x3df6b39f	0.12045979
29	0x3f19d72e	0.60093963
30	0x3d1f1f14	0.038847998
31	0x406c6fca	3.694323
32	0x3f907606	1.1286018
33	0x3de47e21	0.1115687
34	0x3ef8cef9	0.48595408
35	0x4011dba9	2.279032
36	0x40235133	2.551831
37	0x408b6ae8	4.3568
38	0x3fc88e08	1.5668344
39	0x40134210	2.3009071
40	0x40740b7d	3.8132012
41	0x3e83c3a9	0.25735214
42	0x40024c41	2.0359042
43	0x3f1741df	0.59084886
44	0x3ff58630	1.9181576
45	0x403b3d59	2.9256194
46	0x3d447d95	0.047971327
47	0x3f94a833	1.161383
48	0x4009867f	2.148834
49	0x3ef6a0de	0.48169607
50	0x408c17f5	4.3779244
51	0x40592489	3.392855
52	0x3f19f847	0.60144466
53	0x3be5dc76	0.0070148064
54	0x409d390d	4.913214
55	0x40dee40b	6.9653373
56	0x3fbe8f3e	1.4887464
57	0x402fd542	2.7473912
58	0x40158f3f	2.336868
59	0x3d58bd85	0.052915115
60	0x3e9bdc31	0.3044143
61	0x3f77e65e	0.9683589
62	0x4014132a	2.3136697
63	0x3f807c5c	1.0037951
64	0x3d922dc3	0.071376346
65	0x4068ba3a	3.6363664
66	0x4062860c	3.5394316
67	0x3f2bfd2b	0.6718318
68	0x3f0e9c3b	0.5570714
69	0x40fbaec5	7.865084
70	0x3fc017a2	1.5007212
71	0x3c70b891	0.014692442
72	0x405a81a8	3.4141636
73	0x3ecd2e6b	0.40074477
74	0x40bcf8ad	5.905356
75	0x3fc2a7ea	1.5207493
76	0x4097d69a	4.7449465
77	0x3d7d897a	0.061898686
78	0x3f00be3e	0.50290287
79	0x3bcfc85c	0.0063410234
80	0x3fad70da	1.3550065
81	0x3f94c601	1.1622926
82	0x3e060347	0.13087188
83	0x407d4e5a	3.9579072
84	0x3fd282bf	1.644615
85	0x3f65bf25	0.8974479
86	0x3ebe89e0	0.37214565
87	0x3c8d2a9f	0.017232237
88	0x3ea9f1b8	0.3319223
89	0x3e2c5b11	0.16831614
90	0x3f460fc4	0.77367806
91	0x3e87da48	0.26533723
92	0x3e342c0b	0.17594926
93	0x3ef9a17a	0.4875601
94	0x40018db2	2.0242734
95	0x3fed4e5a	1.8539536
96	0x40d2896c	6.579275
97	0x4054cbc2	3.3249364
98	0x3d060111	0.03271586
99	0x3faa19d7	1.3289136
100	0x4093fbe3	4.624498
101	0x3d73c2b8	0.05951187
102	0x3f9df623	1.234074
103	0x4026b2bd	2.6046593
104	0x4015d09c	2.3408575
105	0x3de03f88	0.109496176
106	0x3e2c6482	0.16835216
107	0x3f610217	0.87893814
108	0x3ecec970	0.4038806
109	0x3cbbfaaa	0.022946674
110	0x3f0e4dba	0.5558735
111	0x3f93d250	1.1548557
112	0x3e5268b4	0.20547754
113	0x3e01c59a	0.12673035
114	0x3f889733	1.0671142
115	0x3d974b3d	0.073873974
116	0x3fa5278b	1.2902693
117	0x3f5b3ec2	0.85642636
118	0x3fb3b912	1.4040854
119	0x3e89e732	0.269342
120	0x3d861810	0.06547558
121	0x40cea216	6.457286
122	0x4009dfca	2.154284
123	0x3d710f15	0.058852274
124	0x40003268	2.0030766
125	0x3ed1c4b2	0.4097038
126	0x3e840b2f	0.25789782
127	0x3f8da755	1.1066691
