checkpoint_actor_0.pth (torch_old, 83354 bytes, 10 tensors)

fc1.weight f4 [128, 24]
-0.031554043 -0.039772287 0.085445166 -0.02540601 0.1366493 0.056131933 -0.07922492 0.13446127
-0.008908789 0.08651184 -0.034512512 0.037389338 0.13797554 0.033717677 0.015647897 0.015177268
0.054892436 -0.024956401 -0.027740436 -0.025122555 0.023361677 0.046684284 -0.01234925 -0.038901433
-0.023137081 -0.029635977 0.034340657 0.06470763 0.10051999 0.050320126 -0.024008857 0.002686376
-0.08621468 0.06140208 0.047485933 0.037819885 -0.019020021 -0.10351631 0.01207686 0.07440404
0.03719132 -0.04136317 -0.059513427 -0.0027178684 0.062164772 -0.0690643 -0.012497151 0.059500087
0.023696067 0.14435337 -0.065185 -0.061172213 -0.06473724 -0.0065753334 0.044858072 0.02201759
0.023745334 0.083804786 -0.0062733926 0.046915878 0.042276148 -0.008257886 -0.0013707192 0.00094774016
-0.0072532897 0.049794316 0.13472435 0.059574682 0.06437912 0.05997039 0.092468694 -0.04447419
-0.0018407777 0.07481843 -0.007818061 -0.027335959 0.05468375 0.17635395 0.010069832 -0.009823531
-0.013631178 0.06651281 0.020116774 -0.044856314 0.027493235 0.021189095 -0.038243003 0.046660382
0.039716516 0.09622252 -0.055063702 -0.047413994 -0.11063001 -0.15899438 0.04154608 0.065455005
0.05739087 -0.066711165 0.012773526 -0.05355706 0.12961783 0.031465676 -0.04078883 -0.03472596
-0.04926394 0.029703215 0.07695624 -0.02110649 -0.024094727 -0.10710001 -0.043206256 0.078051895
-0.08210136 0.025678866 -0.07778993 -0.071244344 -0.006839784 -0.08551879 0.04769993 -0.06705414
0.04084014 0.12211807 0.079689905 0.021588808 -0.05383933 -0.1008867 -0.01751235 -0.023796286
-0.008716762 0.009350738 -0.007465163 0.011322573 -0.08283142 0.08485052 0.051827483 -0.05499038
0.09077543 -0.026346186 -0.041214876 -0.031035513 0.042205524 0.08404284 0.02916063 0.05124478
0.028166775 0.040330872 0.022431904 0.032039933 0.1260904 0.03155658 -0.04527918 -0.006595536
0.037959356 -0.03403388 0.015477598 -0.031179734 0.004554264 -0.009378698 0.027721511 0.029062416
-0.031053301 -0.020517211 0.070946135 -0.088011205 0.06801736 -0.046525996 0.019252032 0.029317139
-0.06679939 -0.06626534 -0.049924366 -0.022660656 -0.021477237 0.19294861 0.09692007 -0.06350628
0.006835578 -0.095442824 0.008378506 -0.05360514 -0.06165996 -0.050918918 0.019321937 -0.00083690864
-0.0044085593 -0.052928012 0.010717195 -0.10569014 0.023461971 -0.1275569 -0.0011576869 0.0133127
-0.09775971 -0.013254258 -0.06838886 -0.013240358 0.062124226 -0.14135589 0.05854301 -0.027361743
0.024442518 0.12490312 -0.04727063 0.121917926 0.04452382 -0.08031257 -0.008894788 0.08697027
0.06969533 0.10888858 0.025514122 0.03907629 0.011954451 -0.21967033 -0.018610805 -0.014628988
-0.06594802 -0.040772628 0.027923798 0.050129596 -0.07935471 -0.06354041 -0.022650478 -0.05591238
-0.0005161955 -0.03229783 -0.007279745 0.08754479 -0.10284105 0.038860578 -0.012319673 0.06541116
0.13129602 0.019164247 0.004586999 -0.045712672 0.011430493 0.03251484 -0.06580814 -0.04297639
-0.05515493 -0.07500229 -0.01608192 0.0017810176 -0.0021445686 -0.03606091 -0.026607262 0.047538523
0.009981077 -0.011134543 0.022179382 -0.08642821 0.116236605 -0.030863293 -0.008116628 0.050188854
00000000: d03e 01bd 44e8 22bd e0fd ae3d 4420 d0bc
00000010: cbed 0b3e 99ea 653d ad40 a2bd 37b0 093e
00000020: 2bf6 11bc 1f2d b13d fe5c 0dbd 9025 193d
00000030: 7649 0d3e 8c1b 0a3d 0530 803c 13aa 783c
00000040: e4d6 603d 5e71 ccbc e93f e3bc d1cd cdbc
00000050: fd60 bf3c 0538 3f3d 8254 4abc 1c57 1fbd
00000060: fa89 bdbc 26c7 f2bc caa8 0c3d 6f85 843d
00000070: 6ddd cd3d 7a1c 4e3d 39ae c4bc e90d 303b
00000080: 5291 b0bd bf80 7b3d 9c80 423d 06e9 1a3d
00000090: e0cf 9bbc 5c00 d4bd 06de 453c 2561 983d
000000a0: ed55 183d 6d6c 29bd 5ac4 73bd 441e 32bb
000000b0: 7da0 7e3d 9571 8dbd dac0 4cbc 5db6 733d
000000c0: 411e c23c 5fd1 133e b77f 85bd b78f 7abd
000000d0: f594 84bd e575 d7bb 19bd 373d 3c5e b43c
000000e0: 9385 c23c d8a1 ab3d 0891 cdbb dd2a 403d
000000f0: c129 2d3d 164c 07bc b4a9 b3ba c471 783a
00000100: 01ad edbb 20f5 4b3d 2ef5 093e 9504 743d
00000110: 33d9 833d 83a3 753d 3a60 bd3d 912a 36bd
00000120: 4046 f1ba 683a 993d 5317 00bc a9ef dfbc
00000130: 11fc 5f3d 2196 343e f0fb 243c e0f2 20bc
00000140: 4e55 5fbc de37 883d efcb a43c 41bb 37bd
00000150: 7e39 e13c c194 ad3c b2a4 1cbd f51e 3f3d
00000160: c9ad 223d 5010 c53d 7a8a 61bd 2d35 42bd
00000170: fd91 e2bd 6ccf 22be 392c 2a3d 460d 863d
00000180: b012 6b3d dd9f 88bd 0d48 513c a65e 5bbd
00000190: 89ba 043e 27e2 003d 3012 27bd cf3c 0ebd
000001a0: fcc8 49bd 2854 f33c 3c9b 9d3d 85e7 acbc
000001b0: 4e62 c5bc 4057 dbbd 0bf9 30bd acd9 9f3d
000001c0: c224 a8bd 7c5c d23c 5450 9fbd 8ee8 91bd
000001d0: 4420 e0bb 7a24 afbd 0061 433d ae53 89bd
000001e0: fe47 273d 0a19 fa3d 7634 a33d 03db b03c
000001f0: a186 5cbd b09d cebd 0f76 8fbc 6ef0 c2bc
00000200: c0d0 0ebc d633 193c 539e f4bb 5082 393c
00000210: 85a3 a9bd 1cc6 ad3d 0e49 543d 983d 61bd
00000220: 78e8 b93d f5d3 d7bc eed0 28bd 303e febc
00000230: b3df 2c3d a71e ac3d 46e2 ee3c 0ce6 513d
00000240: 02be e63c fc31 253d 1dc3 b73c 4e3c 033d
00000250: d81d 013e 7941 013d a976 39bd 5e1f d8bb
00000260: 457b 1b3d 1c67 0bbd c095 7d3c a46c ffbc
00000270: ef3b 953b 1ca9 19bc 3918 e33c 4e14 ee3c
00000280: 7e63 febc b613 a8bc 354c 913d 383f b4bd
00000290: b04c 8b3d 0b92 3ebd 70b6 9d3c 7f2a f03c
000002a0: 1ece 88bd 1fb6 87bd 7e7d 4cbd d7a2 b9bc
000002b0: 08f1 afbc 5294 453e 087e c63d 950f 82bd
000002c0: fcfc df3b 8777 c3bd 0046 093c 1091 5bbd
000002d0: 278f 7cbd 5b90 50bd 0a49 9e3c fd63 5bba
000002e0: ad75 90bb 0bcb 58bd 2d97 2f3c 1274 d8bd
000002f0: 5233 c03c 479e 02be 87bd 97ba 831d 5a3c
00000300: 3e36 c8bd 6328 59bc 750f 8cbd 16ee 58bc
00000310: f975 7e3d 99bf 10be ccca 6f3d bc25 e0bc
00000320: ad3b c83c 35cd ff3d d99e 41bd 1bb0 f93d
00000330: 9c5e 363d eb7a a4bd 72bb 11bc 781d b23d
00000340: 6dbc 8e3d fa00 df3d fe02 d13c 760e 203d
00000350: 9adc 433c 42f1 60be b075 98bc 6cae 6fbc
00000360: c10f 87bd 3301 27bd 73c0 e43c b154 4d3d
00000370: b984 a2bd 7921 82bd 7f8d b9bc 6104 65bd
00000380: 4b51 07ba bb4a 04bd ed8a eebb af4a b33d
00000390: 549e d2bd 452c 1f3d 74d8 49bc 49f6 853d
000003a0: 7772 063e 57fe 9c3c 894e 963b 363d 3bbd
000003b0: f646 3b3c 482e 053d 6bc6 86bd 0308 30bd
000003c0: 23ea 61bd cd9a 99bd 3bbe 83bc 0971 e93a
000003d0: e48b 0cbb 9bb4 13bd 79f7 d9bc c1b7 423d
000003e0: ac87 233c a96d 36bc 89b1 b53c 4601 b1bd
000003f0: 750d ee3d 04d5 fcbc 9bfb 04bc d492 4d3d

fc1.bias f4 [128]
-0.041155137 0.0281024 0.053005826 0.1387668 -0.23059869 -0.1331745 0.04776536 -0.11641892
-0.24392505 -0.01951769 -0.13635062 0.06569753 0.08743306 -0.2301876 0.10565165 -0.26520696
-0.30592462 -0.06037901 0.0634402 0.038630158 -0.07580837 0.15447797 -0.33409047 -0.12319039
0.13834976 0.07468656 -0.23919146 0.1983596 -0.25924394 -0.13892779 0.14988628 -0.08781847
0.051420406 -0.10228048 0.057426024 0.18097909 0.012361214 -0.0052245217 -0.09444109 -0.15147048
-0.093014605 -0.21391197 0.13788739 0.033470716 -0.1566698 0.08894382 0.095435105 -0.11834655
-0.0027474486 0.17690557 -0.028961588 0.053494904 -0.11529359 -0.17828521 0.16510092 -0.24299419
-0.2997849 -0.013063397 -0.2792082 0.037465353 0.17364542 -0.098788366 -0.21127734 -0.015901392
-0.09650871 -0.11381765 -0.05435244 0.005482114 0.122387625 0.015737696 -0.013430925 -0.014402441
0.03222898 0.18112896 -0.2444933 -0.028713448 0.07653521 -0.10574074 0.0441013 0.24546511
-0.051652532 -0.20633847 -0.20481902 -0.018407209 0.12840503 -0.10636135 -0.026245356 0.03869581
-0.24913041 -0.18112202 0.087534636 -0.09569462 0.20797405 -0.15025884 0.022697486 -0.09212471
0.022398148 0.13776965 0.011972366 0.17211568 -0.07636071 -0.14262705 -0.26679844 -0.1925933
-0.17942123 -0.08320384 -0.023075724 0.031332497 -0.17160565 -0.18283306 -0.04741933 -0.18542822
0.16754657 0.16700982 0.0659052 0.023853734 -0.098747596 -0.20006207 -0.1414299 0.04064307
-0.13096322 -0.10301529 -0.058782313 -0.19411285 -0.19547108 -0.09597124 -0.15528814 0.09783004
00000000: 4a92 28bd 0137 e63c a31c 593d e218 0e3e
00000010: 1022 6cbe e55e 08be 9ca5 433d 0b6d eebd
00000020: 7dc7 79be 90e3 9fbc 7f9f 0bbe 6d8c 863d
00000030: 1b10 b33d 4cb6 6bbe e45f d83d 35c9 87be
00000040: 27a2 9cbe fb4f 77bd f0ec 813d a83a 1e3d
00000050: 6b41 9bbd 792f 1e3e e80d abbe 3e4b fcbd
00000060: 8fab 0d3e 44f5 983d 9bee 74be c71e 4b3e
00000070: 9fbb 84be 1643 0ebe ca7b 193e 2cda b3bd
00000080: 349e 523d 6e78 d1bd 8d37 6b3d 9552 393e
00000090: b086 4a3c 7732 abbb 556a c1bd 141b 1bbe
000000a0: 717e bebd bd0b 5bbe 5a32 0d3e 9718 093d
000000b0: 0c6e 20be 2d28 b63d 7b73 c33d ad5f f2bd
000000c0: 8a0e 34bb bc26 353e da40 edbc 791d 5b3d
000000d0: 0c1f ecbd 6690 36be 3710 293e 78d3 78be
000000e0: 687d 99be dc07 56bc 61f4 8ebe 4575 193d
000000f0: 1bd0 313e 8e51 cabd 1659 58be a343 82bc
00000100: 5ca6 c5bd 3a19 e9bd aaa0 5ebd 4ea3 b33b
00000110: 5da6 fa3d 57ec 803c 620d 5cbc 37f8 6bbc
00000120: 8902 043d df79 393e 745c 7abe 7738 ebbc
00000130: 7ebe 9c3d 9a8e d8bd 91a3 343d 355b 7b3e
00000140: 9b91 53bd 644a 53be 14bc 51be b7ca 96bc
00000150: 9c7c 033e fbd3 d9bd 8000 d7bc 7f7f 1e3d
00000160: 0b1c 7fbe 0d78 39be 5c45 b33d 8afb c3bd
00000170: 26f7 543e 74dd 19be 14f0 b93c e1ab bcbd
00000180: 527c b73c 7d13 0d3e be27 443c 183f 303e
00000190: 0163 9cbd d30c 12be ce99 88be 2e37 45be
000001a0: 33ba 37be c666 aabd 4d09 bdbc 8156 003d
000001b0: 64b9 2fbe 9738 3bbe c53a 42bd e5e0 3dbe
000001c0: 5491 2b3e 9f04 2b3e 4ef9 863d e868 c33c
000001d0: 2e3c cabd 12dd 4cbe 00d3 10be 5979 263d
000001e0: 391b 06be aef9 d2bd b9c5 70bd 85c5 46be
000001f0: 9229 48be 928c c4bd db03 1fbe 1e5b c83d

fc2.weight f4 [128, 128]
-0.031231303 -0.04059936 0.18079044 0.012166292 -0.21877787 0.18068181 -0.017503763 -0.06227798
0.014487849 0.12681554 -0.05587177 0.15314257 0.16799545 -0.08109426 0.019076506 0.10458643
-0.03740758 -0.0059610223 0.03449645 0.00194029 0.045767482 0.07448304 0.060893144 0.083682254
-0.14671722 -0.034050513 0.025855953 -0.15379901 0.035709713 0.11275907 -0.07809387 -0.035143603
0.06887779 -0.11637562 -0.13844359 -0.26314637 -0.06524596 0.1957329 -0.024473159 0.056267183
-0.075921245 0.21904114 -0.09914613 0.11038534 0.087178424 0.11945515 -0.014123332 -0.021558976
-0.15365984 -0.06970724 -0.05635476 -0.0067057335 -0.15283734 -0.083510056 -0.051999822 -0.07662546
-0.034457162 0.028666578 0.008806503 0.051414505 0.07006579 -0.088056654 0.1209165 0.10849401
0.0616754 0.19168673 0.058891047 0.060215767 0.11492243 -0.20178726 0.12126127 -0.07857568
0.08043254 0.04428524 0.18704288 0.1487261 -0.09156096 0.0833451 0.1256149 0.079119906
0.16078292 0.21211666 0.032813624 -0.07323618 -0.030170554 0.010571809 -0.1282158 -0.052956637
-0.10667713 0.037984606 -0.06303756 -0.0015371768 -0.15174386 0.025290102 -0.1168633 0.031737715
-0.13313812 -0.07520042 0.0054110233 0.011520856 0.012982104 -0.17961806 -0.1387564 -0.12191645
-0.090443365 -0.038214 -0.019119471 -0.114711836 -0.00886076 -0.14935197 0.02077496 -0.15675151
-0.1698026 -0.056653105 0.051152874 -0.14014637 -0.07148725 -0.12114304 -0.049780656 0.13645825
-0.11876798 -0.0641569 0.10415187 -0.023837022 0.040917464 -0.03346277 0.05816192 0.071507215
-0.108986065 -0.03336361 0.1441566 -0.018445782 -0.037284985 -0.055587884 -0.31892276 -0.023055822
-0.05241899 0.005735002 0.043430265 -0.17062241 -0.18756829 -0.100796476 0.06646703 0.03622958
0.093058236 -0.23668161 -0.031121304 0.07440033 -0.06842221 -0.12245772 0.033419244 0.04094864
-0.10711057 -0.0646527 0.06780582 0.13975842 0.16989373 -0.062443625 0.031871933 0.029040447
-0.014561884 -0.1318968 -0.057207346 -0.018256702 -0.004935195 -0.13232395 0.05810498 -0.03409477
-0.07346347 -0.04485024 -0.092087135 -0.09526415 -0.061060455 0.06632401 -0.06121954 0.0060422146
-0.08543079 0.07280221 0.09952054 0.056527283 0.10974543 -0.00054686755 0.087861285 -0.041533627
-0.16076702 0.055623595 -0.00045712854 -0.0067801997 0.04686943 0.13125022 -0.19732067 0.01766459
-0.061923556 0.012883818 -0.05840528 -0.036260393 0.05157149 -0.03707571 -0.04737201 0.0021886837
-0.05696051 0.119575456 -0.10357359 0.07867383 0.06011959 0.015804304 0.07235713 -0.027535696
0.070850134 0.06733134 0.01928709 -0.1482605 0.07976256 -0.030593932 -0.19691817 0.055697896
-0.009081132 -0.10563958 -0.03724405 -0.007986521 0.08949278 0.1660538 0.035652205 0.077525266
0.040667303 -0.027025208 0.1682517 -0.16497381 0.116345026 -0.108275265 0.13157092 -0.053825278
-0.091489874 0.19226077 -0.015259583 -0.04625395 -0.16160546 0.059575465 0.07353666 0.040473673
0.009535077 -0.0010040714 0.20788327 -0.07660194 -0.030341627 -0.29333052 0.0054859207 -0.08778948
-0.2262358 -0.002175296 -0.039505385 0.02319468 -0.017032212 0.10644868 -0.089373365 -0.096759394
00000000: cad8 ffbc 844b 26bd 2121 393e 2155 473c
00000010: 4e07 60be a704 393e 0d64 8fbc 3217 7fbd
00000020: 715e 6d3c efdb 013e ccd9 64bd 68d1 1c3e
00000030: 0007 2c3e bf14 a6bd 5546 9c3c 6931 d63d
00000040: b138 19bd ae54 c3bb 264c 0d3d 5451 fe3a
00000050: af76 3b3d 908a 983d 176b 793d 9a61 ab3d
00000060: 0a3d 16be 8d78 0bbd ddcf d33c 7d7d 1dbe
00000070: 5944 123d 3aee e63d aeef 9fbd bdf2 0fbd
00000080: cc0f 8d3d 5756 eebd 28c4 0dbe 1fbb 86be
00000090: ad9f 85bd 356e 483e ef7b c8bc 6b78 663d
000000a0: 997c 9bbd 524c 603e 200d cbbd b611 e23d
000000b0: 9a8a b23d e7a4 f43d 8c65 67bc 739c b0bc
000000c0: 0159 1dbe abc2 8ebd 40d4 66bd c5bb dbbb
000000d0: 6481 1cbe 5207 abbd c4fd 54bd cfed 9cbd
000000e0: f422 0dbd 2cd6 ea3c 2749 103c 0498 523d
000000f0: a77e 8f3d 0c57 b4bd 12a3 f73d 1c32 de3d
00000100: 589f 7c3d 8749 443e bd37 713d cfa4 763d
00000110: 735c eb3d 52a1 4ebe d457 f83d 49ec a0bd
00000120: d1b9 a43d 7164 353d 2b88 3f3e a84b 183e
00000130: 5084 bbbd d6b0 aa3d 31a1 003e 9e09 a23d
00000140: 47a4 243e 1c35 593e 9467 063d dafc 95bd
00000150: 3d28 f7bc 6135 2d3c 014b 03be 0fe9 58bd
00000160: 8a79 dabd bf95 1b3d d619 81bd 187b c9ba
00000170: be62 1bbe 302d cf3c 0756 efbd 68ff 013d
00000180: 5c55 08be ae02 9abd f44e b13b f9c1 3c3c
00000190: e4b2 543c cced 37be 2816 0ebe 55af f9bd
000001a0: 5f3a b9bd 4986 1cbd 70a0 9cbc 0aee eabd
000001b0: b92c 11bc b9ef 18be 4030 aa3c 7883 20be
000001c0: bce0 2dbe 160d 68bd ad85 513d 8882 0fbe
000001d0: e867 92bd d819 f8bd cde6 4bbd b6bb 0b3e
000001e0: a03c f3bd b164 83bd 934d d53d dc45 c3bc
000001f0: 1299 273d 4210 09bd 323b 6e3d 6072 923d
00000200: 1634 dfbd 48a8 08bd ca9d 133e 9c1b 97bc
00000210: 24b8 18bd 1fb0 63bd d849 a3be 90df bcbc
00000220: 4bb5 56bd afec bb3b efe3 313d a4b7 2ebe
00000230: e711 40be 626e cebd de1f 883d 7865 143d
00000240: 5195 be3d aa5c 72be 1bf2 febc 335f 983d
00000250: f220 8cbd 1dcb fabd 9ee2 083d c3b9 273d
00000260: c95c dbbd a368 84bd c7dd 8a3d d51c 0f3e
00000270: 9ff8 2d3e e3c4 7fbd 258c 023d 3be6 ed3c
00000280: f894 6ebc f40f 07be 4052 6abd 148f 95bc
00000290: 6bb7 a1bb ee7f 07be 7dff 6d3d f5a6 0bbd
000002a0: 0474 96bd e3b4 37bd 2e98 bcbd da19 c3bd
000002b0: 871a 7abd e2d4 873d 57c1 7abd c5fd c53b
000002c0: 57f6 aebd 5319 953d 6dd1 cb3d 2789 673d
000002d0: 36c2 e03d a95b 0fba 9ef0 b33d 2a1f 2abd
000002e0: 1ca0 24be 91d5 633d c1aa efb9 702c debb
000002f0: 29fa 3f3d 7566 063e 6e0e 4abe 55b5 903c
00000300: 8ea3 7dbd a616 533c 603a 6fbd c785 14bd
00000310: a03c 533d b3dc 17bd 2709 42bd 0570 0f3b
00000320: 6c4f 69bd fae3 f43d 641e d4bd bf1f a13d
00000330: f63f 763d 0778 813c fa2f 943d 8a92 e1bc
00000340: e019 913d 03e5 893d f6ff 9d3c 9ad1 17be
00000350: 8e5a a33d 20a0 fabc eba4 49be 7a23 643d
00000360: 07c9 14bc 9059 d8bd 388d 18bd e6d9 02bc
00000370: fe47 b73d 020a 2a3e 0c08 123d 91c5 9e3d
00000380: c292 263d f863 ddbc 2c4a 2c3e e5ee 28be
00000390: 4d46 ee3d 6cbf ddbd 87ba 063e e577 5cbd
000003a0: 0b5f bbbd 02e0 443e 5403 7abc c874 3dbd
000003b0: e77b 25be 6705 743d 639a 963d b9c7 253d
000003c0: 0339 1c3c 0c9b 83ba 5adf 543e 7ae1 9cbd
000003d0: 018f f8bc 6b2f 96be 3dc3 b33b f9ca b3bd
000003e0: 5caa 67be 698f 0ebb 66d0 21bd c502 be3c
000003f0: 2387 8bbc c401 da3d 6209 b7bd ca29 c6bd

fc2.bias f4 [128]
0.053652097 -0.0495814 0.08184098 -0.035859775 0.00090813957 0.14670299 0.07247464 0.24963702
0.15955578 0.10650987 0.07448112 0.15651233 0.14592576 0.087779805 0.04115402 -0.0499986
0.06283521 -0.014703706 0.13741064 0.19082229 -0.0689713 0.06939199 0.030417945 0.09531424
0.141961 0.07681484 0.04696367 0.078020096 0.10444388 0.05040501 -0.051853493 0.25946197
0.07642178 0.059625793 0.034842458 -0.061761376 -0.010432091 0.0925185 0.038431484 -0.033047672
0.02437343 0.0012107646 0.061541006 0.061498184 0.06103923 0.028239118 -0.10384468 0.107173294
0.1576023 0.058371115 0.0593217 0.069626294 0.099572346 0.025855368 -0.041444555 0.030334847
-0.032308433 -0.07770456 0.15763484 0.1769254 0.05405004 -0.0945501 0.012870594 0.0055833976
-0.026183957 -0.010639847 -0.0036300055 0.022611463 0.036047872 0.23364495 0.099958375 0.047247864
-0.014963895 0.09620011 0.014817332 0.060165457 0.1075967 -0.022501597 0.042978186 -0.052546825
0.07009743 -0.104870714 -0.02672487 0.07934115 0.0190041 0.046214826 -0.041019734 0.023995886
0.041399233 0.067179926 0.10333988 0.15588257 0.14328131 -0.15929337 0.062192164 0.014806203
0.112586655 -0.008563567 0.03575606 0.04033682 0.026173064 0.06394377 -0.13355789 -0.008475606
-0.11227865 0.047759302 0.037830245 -0.014870376 -0.009706765 -0.025349803 -0.038085274 0.23576365
-0.077945754 0.23770337 0.039736055 0.047666054 0.029962378 0.035856172 0.059175134 0.057793114
0.0363881 0.13138263 0.12605186 0.024401799 0.081482776 -0.12722832 -0.0535805 0.00637029
00000000: 4dc2 5b3d de15 4bbd 3e9c a73d b3e1 12bd
00000010: 3710 6e3a 4f39 163e 966d 943d d9a0 7f3e
00000020: 9762 233e d921 da3d 8f89 983d c544 203e
00000030: 906d 153e e6c5 b33d 1e91 283d 55cb 4cbd
00000040: bfaf 803d d0e7 70bc 60b5 0c3e eb66 433e
00000050: d340 8dbd 631d 8e3d 0e2f f93c 1d34 c33d
00000060: 395e 113e 1951 9d3d fa5c 403d 00c9 9f3d
00000070: ace6 d53d 7c75 4e3d 5464 54bd 33d8 843e
00000080: 0683 9c3d 2d3a 743d f7b6 0e3d 7ff9 7cbd
00000090: 5ceb 2abc 577a bd3d 556a 1d3d ff5c 07bd
000000a0: caaa c73c 85b2 9e3a 6c12 7c3d 85e5 7b3d
000000b0: 4604 7a3d b955 e73c 85ac d4bd ac7d db3d
000000c0: 7f62 213e 8d16 6f3d 50fb 723d 3b98 8e3d
000000d0: 96ec cb3d a3ce d33c c4c1 29bd c980 f83c
000000e0: d955 04bd 9123 9fbd 076b 213e ef2b 353e
000000f0: 9363 5d3d 7ca3 c1bd 2fdf 523c eff4 b63b
00000100: bd7f d6bc c152 2ebc 63e5 6dbb ad3b b93c
00000110: efa6 133d 9f40 6f3e fab6 cc3d fa86 413d
00000120: 202b 75bc 9004 c53d 65c4 723c 0e70 763d
00000130: a95b dc3d 4555 b8bc e509 303d 573b 57bd
00000140: 3e8f 8f3d 75c6 d6bd 1dee dabc 9d7d a23d
00000150: 7cae 9b3c c24b 3d3d 4f04 28bd 0593 c43c
00000160: 3e92 293d a195 893d dca3 d33d ae9f 1f3e
00000170: 56b8 123e cd1d 23be 36bd 7e3d b795 723c
00000180: d593 e63d 344e 0cbc f274 123d 3938 253d
00000190: e568 d63c f4f4 823d 66c3 08be 45dd 0abc
000001a0: 59f2 e5bd 429f 433d e3f3 1a3d e1a2 73bc
000001b0: 2009 1fbc 64aa cfbc 4eff 1bbd 076c 713e
000001c0: 06a2 9fbd 8368 733e 46c2 223d 7b3d 433d
000001d0: a973 f53c ecdd 123d a061 723d 79b8 6c3d
000001e0: b00b 153d 2b89 063e bd13 013e 48e6 c73c
000001f0: 71e0 a63d 2448 02be 3a77 5bbd debd d03b

fc3.weight f4 [2, 128]
0.12754364 -0.09632828 -0.045176513 0.09491268 -0.20163488 0.1068257 -0.2244899 0.1347455
0.1440322 -0.15008245 -0.08000005 0.19658294 -0.04324762 -0.21397784 -0.28903782 0.097102866
-0.13782057 0.24318323 -0.1100591 0.06875354 0.24555932 -0.19440736 0.18881077 -0.07897701
0.18995734 -0.07253835 -0.07853125 0.09757403 -0.066792645 -0.0028771495 0.060559593 0.072854854
0.028030029 -0.097009614 -0.08474597 -0.1475749 0.17590323 -0.04280825 0.21224944 -0.22064544
-0.07208718 -0.060424387 -0.1840054 -0.18580005 -0.14337184 0.13697822 -0.06679962 -0.2553662
-0.22207184 -0.07333724 -0.16859283 -0.05463129 0.019361662 0.18518606 -0.12745099 -0.09066814
0.16378321 -0.14808567 -0.012527918 -0.20313235 -0.16092895 -0.32180613 0.15769553 -0.20211774
-0.16445819 0.042806227 -0.24859464 -0.047726564 -0.19511208 -0.06673566 -0.3058947 -0.24910091
-0.22712626 -0.18152598 -0.16774578 0.18184601 -0.1866014 -0.18565473 0.14408666 -0.15795846
-0.13219434 -0.20659035 -0.1660655 -0.1924245 -0.2783822 -0.110076725 -0.059308305 -0.15520728
-0.048976902 -0.044318676 0.13710958 -0.06908783 -0.17265247 0.08318971 -0.09643188 0.12549494
-0.11368027 -0.044647697 -0.24002805 0.11818049 -0.241689 -0.098250255 -0.18462308 -0.040892903
0.09867713 -0.27053624 -0.24913974 0.044599876 -0.16013981 0.22110511 0.059921898 0.14771481
-0.22117925 0.13273442 -0.15732528 -0.012259757 -0.1293928 0.09093719 0.093681276 0.1786156
0.115424335 -0.19703242 0.12721753 0.23010507 -0.032184467 -0.15866533 0.17776565 0.14657925
0.043930646 -0.25701687 -0.36688015 -0.34886202 -0.23425928 0.15955251 -0.008826664 0.2945925
-0.02368972 -0.14877178 -0.29047677 0.03412756 0.27432954 0.051345956 -0.042078458 -0.40846053
0.033044472 0.010157077 0.20633772 0.2235775 -0.100865826 -0.039497554 -0.21857604 0.2110272
0.12382178 0.32932404 -0.42449936 -0.39361748 -0.23861575 -0.3308789 -0.4237553 0.22552195
-0.34326923 -0.25652835 0.19228895 0.1714521 -0.20318608 -0.32910526 0.008822386 -0.19308402
-0.31488255 -0.22668882 -0.16806132 -0.26866248 -0.037004024 0.17340262 -0.23538248 -0.08888161
0.16022009 0.17102994 0.051311847 -0.18751363 -0.3039278 0.032028113 -0.2538502 -0.41250014
-0.09693528 -0.15105583 -0.4237216 0.063802406 -0.07410212 -0.029599516 0.04832187 -0.053232636
0.04895236 -0.37260446 -0.1285905 -0.39799714 0.10271221 0.2046651 0.048053768 -0.09013776
-0.06662275 0.04875156 -0.029794717 0.109986395 -0.030256901 0.02265929 -0.3558528 -0.11999543
-0.13896337 -0.0019719293 0.1507377 -0.10379623 -0.049803305 0.19466917 -0.37604895 -0.280453
-0.23863001 -0.42492723 -0.1515563 0.2427959 -0.010915859 -0.34245 -0.5830582 -0.35507247
0.28418937 -0.5371245 -0.046930373 -0.44367358 -0.09251102 0.17790313 -0.18739626 -0.17797701
-0.34055945 -0.08974447 0.031850085 -0.22963735 -0.3234997 -0.0976075 -0.37316266 0.24355091
-0.2757703 0.3101973 0.11991403 -0.29247028 -0.3011215 0.19022869 -0.6112842 0.097787246
-0.2763722 0.12485388 0.2549662 -0.12373311 -0.2750105 -0.198339 0.009364286 -0.26540738
00000000: cd9a 023e c347 c5bd 020b 39bd 9461 c23d
00000010: 6079 4ebe 6fc7 da3d aee0 65be b9fa 093e
00000020: 2d7d 133e 37af 19be 11d7 a3bd 0a4d 493e
00000030: 6b24 31bd 021d 5bbe c4fc 93be dedd c63d
00000040: d620 0dbe 0605 793e aa66 e1bd a8ce 8c3d
00000050: e773 7b3e b912 47be 9c57 413e b3be a1bd
00000060: 2d84 423e fd8e 94bd fed4 a0bd e5d4 c73d
00000070: 95ca 88bd 8f8e 3cbb 560d 783d ed34 953d
00000080: 3b9f e53c faac c6bd 4c8f adbd e01d 17be
00000090: fa1f 343e b457 2fbd eb57 593e e1f0 61be
000000a0: 72a2 93bd 907f 77bd e96b 3cbe 5e42 3ebe
000000b0: 11d0 12be 0544 0c3e 3dce 88bd 5cbf 82be
000000c0: cd66 63be d631 96bd 99a3 2cbe 0fc5 5fbd
000000d0: 599c 9e3c 6aa1 3d3e 8382 02be 38b0 b9bd
000000e0: c9b6 273e c5a3 17be e641 4dbc ed01 50be
000000f0: 8fca 24be c6c3 a4be f07a 213e f4f7 4ebe
00000100: ba67 28be 9555 2f3d 988f 7ebe ee7c 43bd
00000110: 76cb 47be b5ac 88bd 3b9e 9cbe 4f14 7fbe
00000120: c993 68be f2e1 39be 8dc5 2bbe d735 3a3e
00000130: 7014 3fbe 461c 3ebe 748b 133e ddbf 21be
00000140: f45d 07be 6c8c 53be 130d 2abe ee0a 45be
00000150: 1d88 8ebe e86f e1bd 44ed 72bd a8ee 1ebe
00000160: 019c 48bd 8087 35bd 7466 0c3e ec7d 8dbd
00000170: cfcb 30be 5e5f aa3d 147e c5bd bf81 003e
00000180: 34d1 e8bd 81e0 36bd eac9 75be 9d08 f23d
00000190: 527d 77be 6e37 c9bd d50d 3dbe 517f 27bd
000001a0: 3c17 ca3d ba83 8abe 7d1e 7fbe 5cae 363d
000001b0: b1fb 23be 6169 623e aa70 753d 8d42 173e
000001c0: d07c 62be 88eb 073e e119 21be 26dd 48bc
000001d0: 8c7f 04be 473d ba3d f8db bf3d 02e7 363e
000001e0: 9863 ec3d dec2 49be 5045 023e aaa0 6b3e
000001f0: dcd3 03bd 2a79 22be 3308 363e df18 163e
00000200: 9ff0 333d b797 83be b7d7 bbbe 0b9e b2be
00000210: aae1 6fbe bc61 233e b69d 10bc d4d4 963e
00000220: f210 c2bc a157 18be 5fb9 94be 57c9 0b3d
00000230: ec74 8c3e 2350 523d 765a 2cbd bd21 d1be
00000240: a459 073d de69 263c 324a 533e 80f1 643e
00000250: be92 cebd 30c8 21bd 66d2 5fbe 8417 583e
00000260: 4696 fd3d 299d a83e fb57 d9be 3b88 c9be
00000270: b057 74be f668 a9be 74f6 d8be 3aef 663e
00000280: fcc0 afbe af57 83be 65e7 443e 2491 2f3e
00000290: 0310 50be 7c80 a8be c58b 103c d1b7 45be
000002a0: 4938 a1be 1d21 68be 4418 2cbe 218e 89be
000002b0: 8891 17bd 7590 313e 1b08 71be 9007 b6bd
000002c0: bc10 243e 7922 2f3e 5f2c 523d 9303 40be
000002d0: 6d9c 9bbe e92f 033d a7f8 81be 3833 d3be
000002e0: 0186 c6bd 61ae 1abe 0af2 d8be d6aa 823d
000002f0: dac2 97bd af7a f2bc 27ed 453d 770a 5abd
00000300: 4582 483d 03c6 bebe 3aad 03be 48c6 cbbe
00000310: c75a d23d ba93 513e 07d4 443d 259a b8bd
00000320: 8271 88bd b7af 473d 0d14 f4bc 8c40 e13d
00000330: 52dd f7bc fa9f b93c 5732 b6be 2ac0 f5bd
00000340: 6a4c 0ebe 7c3b 01bb fc5a 1a3e 1e93 d4bd
00000350: 8dfe 4bbd 5b57 473e 7d89 c0be 8997 8fbe
00000360: 6d5b 74be 1090 d9be 9331 1bbe 7d9f 783e
00000370: 6ed8 32bc 9b55 afbe 4d43 15bf 0fcc b5be
00000380: 4581 913e fe80 09bf 103a 40bd 2f29 e3be
00000390: 6b76 bdbd 3d2c 363e cee4 3fbe 9b3f 36be
000003a0: cf5d aebe f3cb b7bd 3c75 023d 0e26 6bbe
000003b0: c1a1 a5be 71e6 c7bd 2d0f bfbe 6965 793e
000003c0: c431 8dbe 2ed2 9e3e 7d95 f53d aabe 95be
000003d0: 992c 9abe 4fcb 423e 1f7d 1cbf ae44 c83d
000003e0: a880 8dbe 64b3 ff3d ee8a 823e c967 fdbd
000003f0: 2dce 8cbe 6119 4bbe aa6c 193c 7ae3 87be

fc3.bias f4 [2]
0.0778513 0.18800443
00000000: 8170 9f3d 3c84 403e

bn1.weight f4 [128]
0.5040863 1.0118607 0.5026949 0.4398059 0.39096704 0.62059724 0.7788747 0.99752104
0.20567647 0.80409086 0.633659 0.40833962 1.020698 0.8917978 0.690187 0.682567
0.7994029 0.47497392 0.35874346 0.67345595 1.0649687 0.9782668 0.6403089 0.67990595
0.7975623 0.27878025 1.2419554 0.78783166 0.403031 0.7203071 1.0809085 0.30669838
0.6302452 0.7167452 0.87817705 0.536127 0.7211599 0.46686038 1.1223823 0.8182099
0.32610884 0.53756845 0.8284634 0.78903687 0.42230985 0.52812403 0.64512914 0.49858105
1.184861 1.0271492 0.36905363 1.0375193 0.7653788 0.66231763 0.2328541 0.5919326
1.3445469 0.49484208 0.6209241 0.23445435 0.30469504 0.17393495 0.42713362 1.002325
0.35008782 0.4716502 0.74131244 0.44753468 1.0497248 0.97539043 1.042271 0.3440892
0.33253208 0.9030185 0.67016804 1.1735772 1.0917752 0.3619677 0.22810632 0.7073852
1.0875965 0.889724 1.0825754 1.1450201 0.9529308 0.8188296 0.5011604 0.44013473
0.46019927 1.05496 0.5872355 0.58320504 0.91501546 0.66287696 1.0040761 0.9047595
1.0598743 0.5752174 1.1424671 1.0174628 0.34066412 0.41635934 0.45103198 0.7443509
0.50611717 0.603716 0.4352379 1.1518034 0.38026372 0.9088709 0.8219712 0.42467016
0.47610748 0.6947636 1.0644174 0.40611783 0.6550543 0.7327849 0.6816098 0.27717865
0.8813691 1.117758 0.31279364 0.6117292 1.13296 0.9609058 0.9409394 0.9723451
00000000: cd0b 013f a784 813f 9db0 003f 3d2e e13e
00000010: d52c c83e 76df 1e3f 5564 473f 8a5d 7f3f
00000020: da9c 523e e6d8 4d3f 7a37 223f e411 d13e
00000030: 3ba6 823f dc4c 643f 18b0 303f b6bc 2e3f
00000040: aba5 4c3f c82f f33e 39ad b73e 9c67 2c3f
00000050: e550 883f b16f 7a3f 49eb 233f 510e 2e3f
00000060: 0b2d 4c3f 49bc 8e3e 65f8 9e3f 56af 493f
00000070: 145a ce3e 0c66 383f 365b 8a3f 9207 9d3e
00000080: c057 213f 9d7c 373f 36d0 603f 9e3f 093f
00000090: ef9d 383f 5308 ef3e 39aa 8f3f 3476 513f
000000a0: bdf7 a63e 169e 093f 2d16 543f 52fe 493f
000000b0: ff38 d83e 2333 073f 2f27 253f 0446 ff3e
000000c0: 86a9 973f a079 833f 99f4 bc3e 6fcd 843f
000000d0: ddef 433f a68d 293f 4e71 6e3e e588 173f
000000e0: 1d1a ac3f f15b fd3e e2f4 1e3f cd14 703e
000000f0: fd00 9c3e 011c 323e 42b1 da3e 304c 803f
00000100: b63e b33e 237c f13e a7c6 3d3f 4423 e53e
00000110: 625d 863f 30b3 793f 2369 853f 762c b03e
00000120: a541 aa3e 382c 673f 2290 2b3f c737 963f
00000130: 4abf 8b3f d553 b93e b494 693e 3217 353f
00000140: 5d36 8b3f f4c4 633f d591 8a3f 0590 923f
00000150: 46f3 733f d19e 513f 0c4c 003f 5759 e13e
00000160: 3d9f eb3e ee08 873f 1155 163f ed4c 153f
00000170: 743e 6a3f 4eb2 293f 9185 803f 529e 673f
00000180: f6a9 873f 7341 133f 5d3c 923f 393c 823f
00000190: 876b ae3e 0d2d d53e aaed e63e c88d 3e3f
000001a0: e590 013f 228d 1a3f 81d7 de3e 4b6e 933f
000001b0: edb1 c23e c3ab 683f b46c 523f 5e6e d93e
000001c0: 5cc4 f33e 07dc 313f d43e 883f adee cf3e
000001d0: a3b1 273f cb97 3b3f fb7d 2e3f 5cea 8d3e
000001e0: 68a1 613f b212 8f3f 7d26 a03e 499a 1c3f
000001f0: d504 913f ecfd 753f 68e1 703f 9ceb 783f

bn1.bias f4 [128]
0.071190394 -0.034136426 -0.107704185 0.063043065 0.0478342 -0.048838113 -0.0070197894 -0.056908034
-0.0716322 -0.08304908 -0.13816682 0.12661126 0.022940882 0.013430232 0.050009727 -0.10224738
-0.14207178 -0.032431286 -0.07228604 -0.0072183223 0.022615647 0.01468394 -0.048430216 -0.06369605
0.012487853 -0.041261464 -0.04159927 -0.058428768 -0.029937023 -0.0979799 -0.015506889 -0.07913895
0.021102061 -0.12549758 0.09228973 -0.019755645 -0.08879106 -0.0863341 -0.13557428 -0.044124316
0.0076460373 -0.075009085 -0.050780628 -0.021422233 0.0006409604 -0.10627877 0.0989536 -0.018277815
0.03898316 -0.07381027 -0.06515043 -0.07440352 -0.02522788 -0.1350267 -0.09466328 -0.033036504
-0.09646811 -0.11958164 -0.14413328 -0.037877202 -0.08809171 -0.071846165 0.0736381 -0.07163815
-0.0051702717 0.15724395 -0.073490016 -0.14514501 -0.112743765 0.057384606 -0.12193452 -0.060581386
0.039511483 0.010036269 -0.039210837 -0.035719123 -0.04796922 -0.027294176 -0.07711125 -0.04086306
-0.08900484 -0.05331933 -0.011054423 0.093531676 -0.0393713 -0.053887125 0.063501105 -0.035778087
-0.12165316 -0.0746603 0.09501889 0.041418143 -0.11859262 0.010149098 -0.09314922 -0.032943476
-0.08626441 -0.08342798 0.006849268 0.025951913 0.08013031 -0.0108481925 -0.16981202 -0.051225718
-0.02650326 -0.021511368 0.06260016 -0.0007128167 -0.027501876 0.05976581 -0.1331379 -0.09361796
-0.032651715 -0.0046576597 -0.149079 -0.013140949 0.043113973 0.01688222 -0.09416611 0.019782657
0.044991434 -0.122482754 0.14903896 0.0004996953 -0.08605455 -0.09426333 -0.08985693 -0.052660253
00000000: 45cc 913d a3d2 0bbd 0394 dcbd b91c 813d
00000010: cbed 433d 790a 48bd 4306 e6bb 6618 69bd
00000020: e7b3 92bd a315 aabd 9a7b 0dbe 62a6 013e
00000030: 84ee bb3c 7a0a 5c3c 00d7 4c3d 1367 d1bd
00000040: 447b 11be abd6 04bd b40a 94bd ad87 ecbb
00000050: 7344 b93c e994 703c c35e 46bd 1373 82bd
00000060: da99 4c3c c801 29bd ff63 2abd 0153 6fbd
00000070: 7d3e f5bc b0a9 c8bd 9b10 7ebc 9a13 a2bd
00000080: 3bde ac3c 7082 00be 6602 bd3d 97d6 a1bc
00000090: 16d8 b5bd efcf b0bd fcd3 0abe b3bb 34bd
000000a0: 9c8b fa3b 5d9e 99bd 59ff 4fbd ae7d afbc
000000b0: 2006 283a afa8 d9bd 2fa8 ca3d 5bbb 95bc
000000c0: ceac 1f3d d729 97bd 976d 85bd df60 98bd
000000d0: b3aa cebc 7044 0abe d2de c1bd 4951 07bd
000000e0: 1391 c5bd 38e7 f4bd ad97 13be 2025 1bbd
000000f0: 6d69 b4bd 1524 93bd 92cf 963d 06b7 92bd
00000100: 626b a9bb 8f04 213e ef81 96bd e5a0 14be
00000110: 34e6 e6bd 1f0c 6b3d ceb8 f9bd 3024 78bd
00000120: cbd6 213d 2a6f 243c 8b9b 20bd 374e 12bd
00000130: 5f7b 44bd 0998 dfbc 81ec 9dbd 0660 27bd
00000140: 2b48 b6bd 5f65 5abd 9c1d 35bc 898d bf3d
00000150: cd43 21bd bfb8 5cbd de0c 823d 0b8c 12bd
00000160: 4b25 f9bd 80e7 98bd 4499 c23d 12a6 293d
00000170: b0e0 f2bd 6748 263c 05c5 bebd bdef 06bd
00000180: 65ab b0bd 4adc aabd d36f e03b 1b99 d43c
00000190: 5c1b a43d 9ebc 31bc 34e3 2dbe 0fd2 51bd
000001a0: 5d1d d9bc 9c38 b0bc 8334 803d 52dc 3aba
000001b0: 9d4b e1bc fecc 743d 4d55 08be c6ba bfbd
000001c0: cebd 05bd 489f 98bb 2aa8 18be 234d 57bc
000001d0: 4798 303d 954c 8a3c 29da c0bd 3d0f a23c
000001e0: f048 383d 3dd8 fabd ab9d 183e fcfd 023a
000001f0: 5e3d b0bd 220d c1bd e906 b8bd 47b2 57bd

bn1.running_mean f4 [128]
0.7744753 0.64341915 1.9889952 0.1662727 0.21774532 0.6283184 1.1648686 1.1320285
0.05185383 0.30263895 0.19692762 0.14145505 0.6441048 0.2032258 0.20400019 0.59179944
0.30230618 0.1255093 0.21802042 0.81355405 0.41618797 0.333228 0.34507275 0.88135624
0.365633 0.9692492 1.0905632 0.4495774 0.09420109 0.1511831 0.25933483 0.39287925
0.45824954 0.9443894 0.009699028 0.98171777 0.1784673 0.3222582 0.4565826 0.6703025
0.09970026 0.65181977 0.52740675 0.41862777 0.16139914 0.6008422 0.5006922 0.07326693
0.11184422 0.59755045 0.88350785 1.0246209 0.72960603 1.6347432 1.5427803 0.5619742
0.0207245 2.369739 0.21557112 1.8508006 2.0217657 1.5671158 0.052393794 0.93415815
0.3659946 0.26443085 0.6889288 1.3044763 0.26877362 0.20271435 0.2882142 0.9451538
0.42250052 1.0053627 0.25005326 0.0651762 0.5504878 0.9835384 0.7222471 1.9022583
0.6962287 0.7412817 1.6794943 0.69713324 1.6326284 3.0266566 0.6130206 1.0641384
0.7126093 1.1204637 0.39721814 0.21741237 1.7425923 0.71065134 1.0864979 0.12306609
0.40636066 0.43796623 0.5690978 0.4578318 0.6228258 0.014083743 0.13326356 0.5670837
0.23435503 0.82369524 0.79516673 0.27331364 0.50853395 0.48393622 1.4154389 0.90139735
0.15962392 0.2220349 0.67635715 0.22171019 0.5799737 0.28167552 0.70024496 0.07144476
0.28367487 0.17129357 0.25728577 2.0649161 1.7462596 1.028845 0.38160145 0.57342315
00000000: 0344 463f 1eb7 243f 6597 fe3f 6443 2a3e
00000010: a1f8 5e3e 7ad9 203f 6a1a 953f 4fe6 903f
00000020: af64 543d 7ef3 9a3e 65a7 493e 98d9 103e
00000030: 0de4 243f 6d1a 503e 6de5 503e 2b80 173f
00000040: e0c7 9a3e 8385 003e bf40 5f3e 1445 503f
00000050: 9716 d53e dc9c aa3e 60ad b03e 90a0 613f
00000060: 4034 bb3e b720 783f 9397 8b3f 022f e63e
00000070: 80ec c03d becf 1a3e 89c7 843e 7827 c93e
00000080: af9f ea3e 81c3 713f ace8 1e3c db51 7b3f
00000090: 22c0 363e 07ff a43e 32c5 e93e f298 2b3f
000000a0: a62f cc3d a9dd 263f 2104 073f 6156 d63e
000000b0: d145 253e cbd0 193f 5d2d 003f f90c 963d
000000c0: 950e e53d 11f9 183f 922d 623f c726 833f
000000d0: 76c7 3a3f 443f d13f d379 c53f 8bdd 0f3f
000000e0: 6dc6 a93c cea9 1740 adbe 5c3e 09e7 ec3f
000000f0: 9c64 0140 4097 c83f e09a 563d fd24 6f3f
00000100: a563 bb3e 7b63 873e a35d 303f 14f9 a63f
00000110: b29c 893e 5a94 4f3e d090 933e 99f5 713f
00000120: fd51 d83e baaf 803f fb06 803e 197b 853d
00000130: c5ec 0c3f 2cc9 7b3f 30e5 383f 337d f33f
00000140: 0b3c 323f a3c4 3d3f abf9 d63f 5377 323f
00000150: f8f9 d03f beb4 4140 ebee 1c3f b035 883f
00000160: 906d 363f 5b6b 8f3f 2d60 cb3e 59a1 5e3e
00000170: 440d df3f 3fed 353f 5d12 8b3f 130a fc3d
00000180: 810e d03e 1c3d e03e 65b0 113f ee68 ea3e
00000190: 8371 1f3f 80bf 663c 3e76 083e 662c 113f
000001a0: c4fa 6f3e b1dd 523f 0c90 4b3f c4ef 8b3e
000001b0: 482f 023f 7dc6 f73e 1a2d b53f fac1 663f
000001c0: 7474 233e 1e5d 633e be25 2d3f ff07 633e
000001d0: 2879 143f c637 903e 4143 333f a151 923d
000001e0: d53d 913e 9567 2f3e f6ba 833e 9627 0440
000001f0: 6f85 df3f 31b1 833f 4461 c33e dccb 123f

bn1.running_var f4 [128]
1.0437511 0.94188225 6.772647 0.084028676 0.1750482 0.9978067 2.5728817 1.2271612
0.05607839 0.33698532 0.16916198 0.110588714 0.28558323 0.37159798 0.2309347 0.6915057
0.37966824 0.12409014 0.18433699 1.9861505 0.28289938 0.32272768 0.17570668 1.375093
0.32891676 1.7833917 2.0516338 0.28872323 0.080455095 0.20760839 0.15635256 0.48129034
0.6822305 0.572506 0.005741252 1.2673137 0.18471223 0.27769458 0.77795774 1.13078
0.08802973 1.1804552 0.85418856 0.517873 0.14761554 0.92910844 0.61991805 0.073396824
0.085660614 0.7828913 0.5474183 2.2223663 0.56251645 0.7295491 4.7332716 0.4483457
0.014835868 1.4937993 0.21278088 1.7916511 6.588406 1.2602708 0.033984106 1.0132139
0.46999207 0.3389926 1.113246 1.5893043 0.2540804 0.15091456 0.31948993 2.2733088
0.5176564 0.92173874 0.43357912 0.021062046 1.5331879 2.6730216 0.99089533 6.593229
1.5010762 1.5163066 1.0418382 0.7738051 3.9520004 1.5763153 0.59227246 1.7965415
1.2614074 2.9440463 0.45510232 0.2722153 6.098766 0.9462856 3.480721 0.114752315
0.3193592 0.40585506 0.6998256 0.78422123 1.8991023 0.009293403 0.056547552 0.72454816
0.22266977 2.1925375 1.270928 0.38066927 1.1326246 0.5004717 2.8364804 1.8267758
0.27654645 0.089494415 1.4157062 0.24193308 0.8770948 0.19321327 1.9704893 0.051475484
0.29173854 0.26541063 0.2710708 6.0650687 1.9950486 2.1073427 0.8308302 0.9587668
00000000: a399 853f 321f 713f 86b9 d840 3a17 ac3d
00000010: d63f 333e 4370 7f3f 18aa 2440 9e13 9d3f
00000020: 74b2 653d 5789 ac3e cc38 2d3e 567c e23d
00000030: f737 923e 1742 be3e 257a 6c3e 8406 313f
00000040: e063 c23e f922 fe3d d6c2 3c3e 2e3a fe3f
00000050: 30d8 903e 903c a53e 74ec 333e 0c03 b03f
00000060: c767 a83e 2e46 e43f f84d 0340 88d3 933e
00000070: a4c5 a43d 4b97 543e e31a 203e b06b f63e
00000080: a8a6 2e3f c18f 123f 1d21 bc3b 5637 a23f
00000090: 3425 3d3e fc2d 8e3e 3d28 473f 66bd 903f
000000a0: ee48 b43d 2819 973f 1aac 5a3f 5393 043f
000000b0: 8728 173e 0dda 6d3f f3b2 1e3f 1351 963d
000000c0: d56e af3d 906b 483f 9b23 0c3f 403b 0e40
000000d0: 1401 103f bbc3 3a3f f676 9740 918d e53e
000000e0: 2412 733c d134 bf3f 3be3 593e d354 e53f
000000f0: 39d4 d240 8e50 a13f eb32 0b3d feb0 813f
00000100: cda2 f03e 7090 ad3e d87e 8e3f 536e cb3f
00000110: d416 823e 5989 1a3e 2f94 a33e e47d 1140
00000120: 2185 043f 12f7 6b3f 15fe dd3e 508a ac3c
00000130: 803f c43f c912 2b40 51ab 7d3f bbfb d240
00000140: 4423 c03f 5616 c23f f45a 853f 1718 463f
00000150: 93ed 7c40 b3c4 c93f 2b9f 173f 12f5 e53f
00000160: cc75 a13f 416b 3c40 2c03 e93e ce5f 8b3e
00000170: 1729 c340 c63f 723f 22c4 5e40 4303 eb3d
00000180: 0d83 a33e 3ccc cf3e c527 333f b9c2 483f
00000190: c915 f33f 5b43 183c 689e 673d fd7b 393f
000001a0: 8b03 643e 8952 0c40 c5ad a23f 15e7 c23e
000001b0: d8f9 903f ea1e 003f e588 3540 cad3 e93f
000001c0: 7f97 8d3e d948 b73d dc35 b53f 4ebd 773e
000001d0: 4989 603f b3d9 453e fe38 fc3f f5d7 523d
000001e0: c15e 953e e7e3 873e cbc9 8a3e 0b15 c240
000001f0: c15d ff3f b4de 0640 4ab1 543f be71 753f
