checkpoint_actor_1.pth (torch_old, 83390 bytes, 10 tensors)

fc1.weight f4 [128, 24]
0	0xbb8ed5b0	-0.0043589696
1	0xbc4f3c0f	-0.012648596
2	0x3cd1625f	0.025559602
3	0xbe05f165	-0.13080366
4	0x3daffb9f	0.08592915
5	0xbd54aa09	-0.05191997
6	0xbe0e72d6	-0.13910994
7	0x3cee17ee	0.029064145
8	0x3c95c9eb	0.018284759
9	0x3debcd93	0.115138195
10	0xbcf6dc54	-0.030134358
11	0xba11430e	-0.0005541303
12	0x3d353076	0.04423567
13	0xbd254363	-0.040347468
14	0x3ca40d6e	0.020025935
15	0xbcba7f97	-0.022765918
16	0x3d44353e	0.04790234
17	0xbc93cadd	-0.018041069
18	0xbba288c8	-0.0049601533
19	0x3cb219ca	0.021740813
20	0xbdbb1f55	-0.091368355
21	0x3d36b2a9	0.044603977
22	0x3c2ae5d3	0.010430771
23	0x3c0271ef	0.007961734
24	0xbd672062	-0.056427367
25	0x3cb726cd	0.022357369
26	0x3c83ca79	0.016087757
27	0x3c36cc8d	0.011157167
28	0x3ca53199	0.020165252
29	0x3dd0637d	0.10175226
30	0xbd2d1a81	-0.042261604
31	0xbd50569c	-0.050863847
32	0xbe00d542	-0.12581351
33	0x3de5015e	0.111819014
34	0x3cfe793b	0.031063667
35	0xbcd694f5	-0.026194075
36	0xbd6935f1	-0.05693621
37	0xbd26759b	-0.0406395
38	0xbb8e6320	-0.0043453127
39	0x3c2a3b0d	0.010390055
40	0xbc227933	-0.009916591
41	0xbb90dcb3	-0.0044208406
42	0xbda980d2	-0.08276524
43	0x3c1e3269	0.009655573
44	0x3cb20cd6	0.021734636
45	0x3c855721	0.016276898
46	0xbd126dd7	-0.035749283
47	0x3d933284	0.071873695
48	0x3d4400d0	0.047852337
49	0x3d226342	0.03964544
50	0xbcff44a9	-0.03116067
51	0xbd8dffac	-0.06933531
52	0xbdcb0d9d	-0.09914706
53	0x3c72f0a8	0.014827885
54	0x3da18d52	0.07888283
55	0x3c62fc48	0.013854094
56	0x3d21047d	0.03931092
57	0xbc1742c8	-0.0092322305
58	0xbcba04ce	-0.02270737
59	0x3dcf6e19	0.10128421
60	0x3d235e53	0.039884876
61	0x3d6099ee	0.0548343
62	0xbc91db5f	-0.0178048
63	0x3d6293d9	0.05531678
64	0x3caab7fb	0.020839682
65	0xbce5e1cf	-0.028061775
66	0x3d0c80d1	0.034302536
67	0x3da90132	0.08252181
68	0x3dcc7762	0.09983708
69	0x3dfa3fac	0.12219176
70	0xbc024d76	-0.007953038
71	0xbcb059c8	-0.021527186
72	0x3bc16a4e	0.005902565
73	0x3d6dafc6	0.05802896
74	0x3c8657e7	0.016399337
75	0xbde8e685	-0.11372093
76	0x3c36ce70	0.011157617
77	0x3d99e831	0.0751499
78	0x3d0c70e1	0.034287337
79	0xbdc508f9	-0.09620852
80	0x3cb4678e	0.022022035
81	0x3d8db810	0.06919873
82	0x3ccd1dcf	0.025038628
83	0xbd973e34	-0.07384911
84	0x3ceb9b0b	0.028760454
85	0xbd16bbbd	-0.036800135
86	0xbd087bd0	-0.0333212
87	0x3c90bc5d	0.017667944
88	0x3d0ac6c0	0.03388095
89	0x3d53e693	0.051733565
90	0xbd819706	-0.063276336
91	0xbdc5433f	-0.09631967
92	0xbdd51b46	-0.104055926
93	0xbd8883be	-0.06665753
94	0x3d0888d1	0.033333603
95	0x3c879117	0.016548676
96	0x3d986e85	0.07442955
97	0xbdd8bc19	-0.10582752
98	0x3d144713	0.036200594
99	0x3d8a4327	0.067510895
100	0x3ddae055	0.10687319
101	0xbb98930a	-0.0046562003
102	0xbc8e3972	-0.017361376
103	0x3db0d3f3	0.08634176
104	0xbd1315d5	-0.035909493
105	0x3cad6909	0.021168249
106	0x3da57175	0.08078281
107	0x3cf9bec6	0.030486476
108	0xbd22087d	-0.039558876
109	0xbdff9bc3	-0.12480881
110	0xbd214bf2	-0.039379068
111	0x3e04c19f	0.12964486
112	0xbd93c022	-0.07214381
113	0x3d042eab	0.03227107
114	0xbd93d4c9	-0.0721832
115	0x3c351658	0.01105269
116	0xbbfd4e34	-0.00773027
117	0xbd9657a8	-0.07340938
118	0x3d5a5846	0.05330684
119	0x3c79bd6f	0.015242918
120	0x3d3b47f5	0.04572292
121	0x3dbbb387	0.091651015
122	0x3d62f197	0.05540618
123	0x3cfa3867	0.030544473
124	0x3c9b8798	0.018985555
125	0xbd22b19e	-0.03972017
126	0xbd2b32a7	-0.041796353
127	0xbc73260f	-0.014840617
128	0xbc9ce86e	-0.0191538
129	0xbc053277	-0.008129708
130	0xbc86e7ac	-0.016467892
131	0x3d5fb9cc	0.05462055
132	0x3cc1d5e5	0.023661563
133	0x3df5af12	0.11996283
134	0x3d2f68ea	0.042824663
135	0xbc3f92e3	-0.011692735
136	0x3d7dd56b	0.06197111
137	0xbcd5d4d7	-0.026102467
138	0xbd37366c	-0.044729635
139	0x3c6862a4	0.014183674
140	0x3e0a538d	0.13508435
141	0x3db270f7	0.087129526
142	0x3cd21709	0.02564575
143	0x3dc58f3f	0.09646463
144	0x3ccc6d27	0.024954392
145	0x3d1507cb	0.036384385
146	0x3d4143ed	0.04718392
147	0x3d2aa41a	0.041660406
148	0x3d814a9e	0.0631306
149	0x3d9781a1	0.073977716
150	0xbca82a10	-0.02052787
151	0x3b463e2e	0.0030249464
152	0xbd458370	-0.04822105
153	0xbdf8b516	-0.121439144
154	0x394f9ee5	0.00019800251
155	0xbd6ac9ee	-0.05732148
156	0xbd186552	-0.037206
157	0x3e170a26	0.14749965
158	0x3c4bd916	0.012441894
159	0x3b3f7329	0.0029212928
160	0xbde3e3c3	-0.111274265
161	0xbdbccc35	-0.09218637
162	0x3d013d17	0.0315524
163	0xbd5a0a3b	-0.053232413
164	0x3c87b0ae	0.01656374
165	0x3be97684	0.007124724
166	0xbca50176	-0.020142298
167	0x3d8344e7	0.064096265
168	0xbd0234d3	-0.03178866
169	0xbbf88b25	-0.0075849467
170	0xbda35863	-0.07975843
171	0x3ce52b3f	0.027974723
172	0xbcc3400c	-0.02383425
173	0xbcb1fb9e	-0.021726426
174	0x3d896495	0.067086376
175	0xbc52e19c	-0.012871172
176	0xbd1ac78e	-0.037787966
177	0xbd902a17	-0.07039278
178	0xbbe945ed	-0.0071189315
179	0xbd1e776c	-0.03868811
180	0x3c06c02b	0.008224527
181	0xbdf1b6fa	-0.11802478
182	0x3b7aa460	0.0038244948
183	0x3c66b0a0	0.014080197
184	0xbcb8b984	-0.022549398
185	0x3bf55bb3	0.007487738
186	0x3c9d172d	0.01917609
187	0xbd8ffa44	-0.07030156
188	0x3e2d8d0a	0.16948333
189	0xbe0b919a	-0.13629761
190	0x3bef4126	0.0073014675
191	0x3d477a33	0.048700523
192	0xbd45d50a	-0.048298873
193	0xbda0a055	-0.07843081
194	0xbd51d784	-0.051230922
195	0x3d32f844	0.043693796
196	0x3d8ff78f	0.0702964
197	0xbcbbf1ca	-0.022942442
198	0x3d9b0922	0.07570101
199	0x3cf24194	0.029572286
200	0x3d49463f	0.049139258
201	0x3d1388c9	0.03601912
202	0xbd671135	-0.056412894
203	0x3dd34e80	0.10317707
204	0x3d8dd375	0.06925098
205	0x3cf03149	0.029320376
206	0xbc93c2e6	-0.01803727
207	0x3d8bbc00	0.068229675
208	0x3dcbeb30	0.09956968
209	0x3cb6f6a7	0.02233441
210	0x3d956305	0.07294277
211	0x3d9b73aa	0.075904205
212	0x3d6b6b48	0.05747536
213	0xbe007b56	-0.12547049
214	0x3cec1468	0.028818324
215	0x3cb5dadf	0.022199092
216	0xbd1132dd	-0.035448898
217	0xbca3e1f9	-0.020005213
218	0x3d900b1a	0.070333675
219	0xbabcb721	-0.0014397838
220	0xbce7731e	-0.028253134
221	0xbda97eef	-0.08276164
222	0x3ca1e028	0.019760206
223	0xbddc1f4d	-0.10748158
224	0x3af74f7e	0.0018868295
225	0xbd6b2cdc	-0.057415828
226	0x3d02789e	0.03185331
227	0x3db318cd	0.08744965
228	0xbda69dc7	-0.081355624
229	0x3d866722	0.0656264
230	0x3cdba752	0.026813183
231	0x3d85c456	0.06531589
232	0x3dfa3832	0.1221775
233	0x3cd5f429	0.026117401
234	0x3c636b9a	0.013880635
235	0x3d8f830e	0.070074186
236	0x3c5cc89c	0.013475563
237	0x3c58f60c	0.013242256
238	0xbd677c84	-0.05651523
239	0x3d951db2	0.072810546
240	0xbd864878	-0.06556791
241	0xbd8e3c13	-0.06945052
242	0x3b58a9c2	0.0033060168
243	0xbc046545	-0.008080785
244	0x3cd341ab	0.025788149
245	0xbd2c86a3	-0.042120587
246	0xbbec9339	-0.0072196987
247	0x3d1a5274	0.03767629
248	0x3caf196f	0.021374432
249	0x3c909b33	0.01765213
250	0x3c1c577f	0.009542345
251	0xbda22685	-0.07917503
252	0x3d40e187	0.04709008
253	0x3c838600	0.016055107
254	0xbcaa03db	-0.020753792
255	0x3d6b475d	0.057441104

fc1.bias f4 [128]
0	0xbc1aea42	-0.0094552655
1	0xbc8ded38	-0.017325029
2	0xbc0a1a48	-0.0084291175
3	0x3e086230	0.13318706
4	0xbe67acab	-0.22624461
5	0xbe06e69a	-0.13173905
6	0x3e671139	0.22565164
7	0xbd1beb64	-0.038066283
8	0xbe6d4b54	-0.23173267
9	0x3d7a2f2e	0.06108015
10	0xbe369d07	-0.17833339
11	0xbd3b9e40	-0.045805216
12	0x3e23a87f	0.15982245
13	0xbe6815e3	-0.22664599
14	0x3d8d4093	0.06897082
15	0xbe9a2e13	-0.30113277
16	0xbe88be73	-0.267078
17	0xbd9d17f3	-0.076705836
18	0x3da43375	0.08017627
19	0xbc276180	-0.010216117
20	0x3c305403	0.010762217
21	0x3e4e4c6b	0.20146339
22	0xbe123e47	-0.1428157
23	0xbe525cb0	-0.2054317
24	0x3bc1ecd2	0.0059181238
25	0x3ce98666	0.028506469
26	0xbe8cc3b6	-0.27493066
27	0x3e65a6b0	0.22426867
28	0xbe957214	-0.29188597
29	0xbe6e46ec	-0.23269242
30	0x3e7aae6a	0.24480596
31	0xbdf7d3ff	-0.12100982
32	0x3c0bd610	0.008534923
33	0xbe37e195	-0.17957146
34	0x3d960fe0	0.07327247
35	0x3e2271a9	0.1586367
36	0x3e14c91d	0.14529844
37	0x3cbb92af	0.022897093
38	0xbd5e7152	-0.05430729
39	0xbdfb7fbb	-0.12280222
40	0xbd17ed8b	-0.037091773
41	0xbe1acb32	-0.15116575
42	0x3d81ac78	0.06331724
43	0xbd0430c9	-0.032273088
44	0xbe276ce5	-0.16350134
45	0x3e160858	0.1465162
46	0x3e298b7f	0.1655712
47	0xbbf613cf	-0.0075096856
48	0x3d242766	0.040076636
49	0x3e54ac59	0.2076887
50	0xbd3743ab	-0.044742268
51	0x3d91f9bb	0.071277104
52	0xbe1a02df	-0.15040158
53	0xbe2aad8c	-0.16667765
54	0x3d81f86f	0.06346213
55	0xbed54860	-0.4165678
56	0xbe38fbcb	-0.18064801
57	0xbdf8571e	-0.12125991
58	0xbe55af73	-0.2086771
59	0xbb8aa331	-0.0042308797
60	0x3e1b0286	0.15137681
61	0xbe288af1	-0.16459252
62	0xbe6dee6b	-0.2323548
63	0x3dac38b8	0.08409256
64	0xbcce8f9d	-0.025214965
65	0xbe20a9c2	-0.15689757
66	0xbd83141e	-0.064003214
67	0xbc732de4	-0.014842484
68	0x3e3e2664	0.18569332
69	0x3e0212ee	0.12702534
70	0x3d004667	0.03131714
71	0xbd20f087	-0.039291885
72	0x3dfb628b	0.12274655
73	0x3e418767	0.18899308
74	0xbe32e24d	-0.1746914
75	0x3d06c437	0.03290197
76	0x3e38f0e0	0.18060637
77	0xbe0af92b	-0.13571613
78	0x3e00d39d	0.12580724
79	0x3e0823cb	0.13294904
80	0xbbbc5f9e	-0.005748703
81	0xbd4b093b	-0.04956935
82	0xbe370a7d	-0.17875095
83	0xbd8d4d81	-0.06899548
84	0x3e2a8266	0.16651306
85	0xbdbfc3f6	-0.093635485
86	0x3c51f1ab	0.012813966
87	0x3cc4ca46	0.024022233
88	0xbe6eb38c	-0.23310679
89	0xbe4ef1e8	-0.20209467
90	0x3d018e5d	0.03162991
91	0xbdcd4e05	-0.10024647
92	0x3e6a4f77	0.22881876
93	0xbd15c18d	-0.036561538
94	0x3df1d4f0	0.11808193
95	0xbd9e31df	-0.07724356
96	0x3dc248bf	0.094865315
97	0xbcfc04df	-0.030764041
98	0x3d67cbef	0.05659097
99	0x3dff370a	0.1246167
100	0x3c98b5bd	0.018641347
101	0xbdca440c	-0.0987626
102	0xbe8daac0	-0.27669334
103	0xbe7c17ce	-0.24618456
104	0xbe0c3350	-0.13691449
105	0xbdcbe958	-0.09956616
106	0xbda6ee0c	-0.081508726
107	0x3d3c44a5	0.045963902
108	0xbdeace9f	-0.11465191
109	0xbe01b877	-0.12668024
110	0xbce2d678	-0.027690157
111	0xbe83495c	-0.25641906
112	0x3ddf48a1	0.10902525
113	0x3db7e54c	0.08979282
114	0x3d14b34b	0.0363038
115	0xbd201184	-0.039079204
116	0xbe160b0e	-0.14652655
117	0xbe8749f9	-0.26423624
118	0xbdb6657c	-0.08906075
119	0xbd4e0235	-0.050295074
120	0xbe2b5d3c	-0.16734785
121	0xbd114eeb	-0.035475653
122	0xbd36d5c3	-0.044637453
123	0xbe38f4d6	-0.18062147
124	0xbe9883a6	-0.2978794
125	0xbdf33095	-0.11874501
126	0xbdbe2afb	-0.092855416
127	0xbcb37848	-0.02190794

fc2.weight f4 [128, 128]
0	0xbdb716f1	-0.089399226
1	0xbe500edf	-0.20318173
2	0x3e427300	0.18989182
3	0xbdf8b99f	-0.121447794
4	0xbcbd2ae7	-0.023091746
5	0x3df9c477	0.12195676
6	0x3d715265	0.05891647
7	0x3d5968ce	0.053078465
8	0x3df369c7	0.1188541
9	0x3d300821	0.042976502
10	0xbe2e642b	-0.17030399
11	0xbe17c916	-0.14822802
12	0x3e36812e	0.17822716
13	0xbd88bf3d	-0.06677101
14	0x3d32db46	0.043666147
15	0x3ba0d0b7	0.0049076932
16	0xbe20efe5	-0.15716513
17	0x3c8d4bce	0.01724806
18	0xbd6e4fd0	-0.058181584
19	0xbc21775e	-0.0098551195
20	0x3dfa628b	0.12225827
21	0x3cd9119f	0.02649766
22	0x3da8b4d9	0.08237619
23	0x3e3dd43b	0.18537991
24	0xbe2c6d9c	-0.16838688
25	0x3c378ac9	0.011202523
26	0x3d8c3ac6	0.06847148
27	0xbe4e4600	-0.2014389
28	0xbddc2a01	-0.10750199
29	0x3d18dca5	0.037319798
30	0x3cd71fc1	0.026260259
31	0xbde631f7	-0.11239999
32	0x3d976ed4	0.07394186
33	0xbe78b94a	-0.24289432
34	0xbe67b98d	-0.22629376
35	0xbe0b84e1	-0.13624908
36	0xbda1da1d	-0.0790293
37	0xbd5cc49e	-0.053898446
38	0x3b498f1c	0.0030755466
39	0xbde7bcf8	-0.1131534
40	0x3c81ae79	0.015830265
41	0x3e2e5a3e	0.17026612
42	0xbd4fa76a	-0.050696768
43	0x3d094595	0.033513624
44	0x3e61c18e	0.22046492
45	0x3d7797be	0.060447447
46	0xbe54b551	-0.20772292
47	0xbcbba670	-0.022906512
48	0xbe0e5988	-0.13901341
49	0xbdba5eb4	-0.091000944
50	0xbdf01278	-0.11722273
51	0x3d66fa79	0.056391213
52	0xbdd6248c	-0.104561895
53	0xbe2f4406	-0.17115793
54	0xbe306c57	-0.17228828
55	0xbd774135	-0.06036492
56	0xbabfffe2	-0.0014648403
57	0x3d4b1afa	0.049586274
58	0x3d46f8e7	0.048577216
59	0xbde059b6	-0.10954611
60	0x3d389e20	0.045072675
61	0xbd092e09	-0.03349117
62	0x3e618653	0.22023897
63	0x3e21bd0d	0.15794773
64	0x3d9e58cd	0.07731781
65	0x3e0b48aa	0.13601938
66	0x3dc5e565	0.09662894
67	0x3d9a7141	0.07541133
68	0x3d81efb8	0.06344551
69	0xbe57dabf	-0.21079539
70	0x3d000c6f	0.031261858
71	0xbcf1f76b	-0.029536923
72	0x3c82b370	0.015954703
73	0xbb9d01e7	-0.0047914865
74	0x3d9a0f38	0.07522434
75	0x3e224dda	0.1585001
76	0xbe10859a	-0.14113465
77	0x3cdb425f	0.026765047
78	0x3d4daf9b	0.0502163
79	0xbb287464	-0.002570414
80	0x3daa55de	0.08317159
81	0x3e335838	0.17514122
82	0x3debc2fe	0.11511801
83	0xbd76267f	-0.060095306
84	0xbdaa27a6	-0.083083436
85	0xbc58220f	-0.013191714
86	0x3d9b0d24	0.07570866
87	0x3d384551	0.04498798
88	0xbddb09e6	-0.10695247
89	0xbbc5bf40	-0.0060347617
90	0xbdc7ec50	-0.0976187
91	0xbcd0aa80	-0.025471926
92	0x3c6010a5	0.013675843
93	0xbdcb24d7	-0.09919136
94	0xbe02b61b	-0.1276478
95	0xbcf79556	-0.030222576
96	0xbe866726	-0.2625057
97	0xbde0b493	-0.10971942
98	0x3da45dbe	0.080256924
99	0xbc79ec66	-0.015254116
100	0xbbaa4016	-0.005195628
101	0xbdeab4bf	-0.11460256
102	0xbe4db236	-0.20087513
103	0xbda3dc53	-0.08001008
104	0xbdf96722	-0.12177874
105	0xbdf7344b	-0.12070521
106	0xbe033176	-0.12811837
107	0xbdc0e960	-0.09419513
108	0xbda4ba82	-0.08043386
109	0xbe46ff93	-0.19433431
110	0x3d55beae	0.0521838
111	0xbe08a78e	-0.13345167
112	0xbdd1da53	-0.1024672
113	0xbd6af909	-0.057366405
114	0xbda6cdaa	-0.08144696
115	0x3c731506	0.014836555
116	0xbd1f9e1e	-0.03896915
117	0xbe0c89f9	-0.13724507
118	0x3cf86f3a	0.030326474
119	0x3dc7730d	0.09738741
120	0xbc376c0e	-0.011195196
121	0xbc5d3141	-0.013500513
122	0x3cc29a5c	0.023755245
123	0x3d4a0ed1	0.049330536
124	0x3d23e75b	0.04001556
125	0xbe0d8121	-0.1381879
126	0xbcc2bc54	-0.023771442
127	0x3ddc38e9	0.10753042
128	0xbdf90557	-0.121592216
129	0xbd83523c	-0.06412169
130	0x3dc4fa85	0.09618095
131	0xbda37e26	-0.07983045
132	0x3d9a9137	0.07547229
133	0x3dd54e57	0.10415333
134	0xbe36b631	-0.17842938
135	0xbe074a85	-0.1321202
136	0x3ddd7d73	0.10814943
137	0x3daf3f2e	0.085569724
138	0xbe6ceac4	-0.23136431
139	0x3c8b0a17	0.016972585
140	0xbdcf01ab	-0.1010774
141	0xbe4af782	-0.19820979
142	0x3d1c0111	0.038086955
143	0x3d9ace2f	0.07558858
144	0x3c3e75e8	0.011624791
145	0xbe72995c	-0.23691314
146	0x3bd3d146	0.0064641563
147	0x3e0386c6	0.1284438
148	0xbdb6ff27	-0.08935385
149	0xbd8f5c1c	-0.0699999
150	0xbd488648	-0.048956186
151	0x3ca2536a	0.019815166
152	0xbe173e0d	-0.14769764
153	0xbcf7aee0	-0.030234754
154	0x3dbcfed7	0.09228294
155	0x3e334682	0.17507365
156	0x3d0f5e26	0.035001896
157	0xbe36d2fc	-0.17853922
158	0x3c14191a	0.009039188
159	0xbd22bb71	-0.03972954
160	0x3d6db790	0.058036387
161	0xbe8058c1	-0.25067714
162	0xbe0dd43b	-0.13850491
163	0xbca50a1a	-0.020146418
164	0xbddefaaa	-0.10887654
165	0xbd31ecf3	-0.043438863
166	0xbdba7154	-0.09103647
167	0x3cd7a9f9	0.026326166
168	0xbd0157ae	-0.03157776
169	0xbd87b917	-0.066271
170	0xbde754df	-0.11295485
171	0x3c138c61	0.009005637
172	0xbb9431bf	-0.0045225318
173	0x3d1f3661	0.03887022
174	0xbc531647	-0.012883729
175	0xbe575d2c	-0.21031636
176	0x3d7547f4	0.059883073
177	0xbd827893	-0.06370654
178	0x3e0e7a17	0.13913761
179	0x3ceedecc	0.029158972
180	0x3c516a46	0.012781685
181	0x3cfb4d9a	0.030676652
182	0xbd256893	-0.040382933
183	0x3cb5814d	0.022156382
184	0xbc9a98ee	-0.01887175
185	0x3ca16ca0	0.019705117
186	0x3bf9bfdf	0.00762175
187	0xbe880a88	-0.26570535
188	0x3cc8ec4e	0.024526741
189	0xbe14f624	-0.1454702
190	0x3d863baa	0.06554349
191	0xbce7632c	-0.028245531
192	0xbd1ee113	-0.038788866
193	0x3d10ba7f	0.035334107
194	0x3b9aa4c7	0.00471935
195	0xbbb10d18	-0.005403172
196	0x3c13e925	0.009027754
197	0xbbbf9fc4	-0.005847903
198	0xbd88cc23	-0.06679561
199	0xbe090260	-0.13379812
200	0x3e3dbafc	0.1852836
201	0x3cb2b700	0.021815777
202	0x3d4bfed2	0.049803562
203	0x3bb26aef	0.0054448764
204	0xbd394d6e	-0.04523986
205	0xbe5e187c	-0.21689028
206	0x3dd3789e	0.1032574
207	0xbcc0e53c	-0.023546807
208	0x3d82278e	0.06355201
209	0x3c8d5330	0.017251581
210	0xbda07537	-0.07834857
211	0xbe98288c	-0.29718435
212	0x3d80e9c1	0.06294585
213	0xbdec7e5d	-0.115475394
214	0xbe75bd7a	-0.23998061
215	0xbc8e14a2	-0.017343823
216	0xbb5c5680	-0.0033620894
217	0x3c815bd5	0.01579086
218	0xbe566e49	-0.20940508
219	0xbdcf57f0	-0.101241946
220	0xbd91ce2b	-0.071194015
221	0x3dfa39d1	0.12218059
222	0xbc61574f	-0.013753726
223	0x3d0ec0f0	0.03485197
224	0xbdf42dde	-0.11922811
225	0xbde64ab5	-0.11244718
226	0x3dac8783	0.08424284
227	0xbd9443a2	-0.072394624
228	0x3e21bdad	0.15795012
229	0xbe8b8600	-0.2725067
230	0xbdbfa504	-0.09357646
231	0x3d9f12a3	0.077672265
232	0xbd443ea7	-0.047911312
233	0x3dc3dc65	0.09563521
234	0xbda3f3c2	-0.080054775
235	0x3d712952	0.058877297
236	0x3b84cce2	0.0040527442
237	0xbb811a2b	-0.003939887
238	0x3ca63b70	0.020292014
239	0x3ced829d	0.028992945
240	0xbe2fe2fa	-0.17176428
241	0x3ce0084f	0.027347712
242	0x3deac983	0.114642166
243	0xbe3f6d2f	-0.18693994
244	0xbd0d6f4d	-0.034529973
245	0xbe2415a2	-0.16023877
246	0xbdbcb104	-0.092134506
247	0x3d32fc27	0.043697502
248	0xbe4c0dae	-0.19927093
249	0x3db5c56e	0.08875547
250	0x3c958a81	0.01825452
251	0xbcc5453c	-0.024080865
252	0x3c02de40	0.007987559
253	0xbd1830cd	-0.037155915
254	0xbe3f0891	-0.18655612
255	0xbd94833a	-0.07251592

fc2.bias f4 [128]
0	0x3d5cdc20	0.053920865
1	0xbc43a856	-0.01194199
2	0xbd0ec9a1	-0.034860257
3	0xbc18d37c	-0.009327766
4	0x3d5d480b	0.054023784
5	0x3dba11a6	0.090853974
6	0x3d951ffd	0.07281492
7	0x3e4a3103	0.19745259
8	0x3e2878fe	0.16452405
9	0x3d5d641f	0.05405056
10	0x3d7e399e	0.062066667
11	0x3dc8f1ea	0.098117664
12	0x3d9a1a8a	0.07524593
13	0x3e134a71	0.14383866
14	0x3d21bc9d	0.039486516
15	0xbde42762	-0.11140324
16	0x3d94655f	0.072458975
17	0xbd494992	-0.049142428
18	0x3e0926d8	0.13393724
19	0x3e86a54c	0.26297987
20	0x3d1f8f3c	0.03895496
21	0x3ccef5e2	0.02526373
22	0x3cd2a71d	0.025714451
23	0xbc0fab9e	-0.008768944
24	0x3df6f664	0.12058714
25	0x3c64621d	0.013939408
26	0x3d8ec55d	0.06971238
27	0x3be592d2	0.0070060277
28	0x3e03465a	0.12819806
29	0x3dfd5442	0.123695865
30	0xbda71996	-0.08159177
31	0x3e8a29f3	0.2698513
32	0x3d8a9b7e	0.06767939
33	0x3dbff4f7	0.09372895
34	0x3d647cbb	0.055783015
35	0xbcd4226d	-0.025895322
36	0x3d43f161	0.04783762
37	0x3d4ea358	0.050448745
38	0xbc3ef95a	-0.01165613
39	0xbc3c3509	-0.011487254
40	0x3ae953b3	0.0017801434
41	0xbc9e8842	-0.019352082
42	0x3df25369	0.118323155
43	0x3d8077b7	0.06272834
44	0xbdae8d23	-0.085230134
45	0x3c0d0d2d	0.008609098
46	0xbcaccd04	-0.021093853
47	0x3dbafaa9	0.09129841
48	0x3d6f0823	0.05835737
49	0x3df80018	0.12109393
50	0x3e1f0ce6	0.15532264
51	0x3e158898	0.14602888
52	0x3cedae1f	0.029013691
53	0x3d23a2fa	0.03995035
54	0xbd6ced32	-0.057843395
55	0x3d287b38	0.041133136
56	0x3c910eda	0.017707277
57	0x3befcada	0.007317883
58	0x3c33b3fd	0.0109682055
59	0x3dcc3896	0.099717304
60	0x3d7d00ce	0.061768346
61	0xbc810cb4	-0.015753128
62	0x3db46930	0.088091254
63	0x3cf2fc1e	0.029661234
64	0x3c5efebf	0.013610541
65	0xbbebfe99	-0.0072019813
66	0x3da271bf	0.079318516
67	0xbd43178c	-0.047629878
68	0x3d1e3f7a	0.038634755
69	0x3e181018	0.1484989
70	0x3df69879	0.120408006
71	0x3bd8c09e	0.0066147586
72	0xbc0d9c81	-0.0086432705
73	0xbb393646	-0.002826111
74	0x3d011ecb	0.031523507
75	0x3a6720b5	0.00088168244
76	0x3da09f1d	0.078428484
77	0xbbcfb92a	-0.006339212
78	0x3d3ab9bb	0.045587283
79	0xbdaba475	-0.08380977
80	0x3d2df103	0.042466175
81	0x3d8eb168	0.06967431
82	0xbd817c22	-0.063225046
83	0x3ca4e60f	0.020129232
84	0x3d99a3bb	0.07501932
85	0x3cde907e	0.027168509
86	0x3c74e1dc	0.014946427
87	0x3ce9a4f7	0.028521044
88	0xbcac37f9	-0.021022784
89	0x3b93cf4e	0.0045107966
90	0x3e0a69b3	0.13516884
91	0x3dbd0305	0.092290916
92	0x3e2e33c1	0.1701193
93	0xbdb5fcc8	-0.08886105
94	0x3e067271	0.13129593
95	0xbc89771a	-0.016780425
96	0x3d8e972a	0.06962426
97	0xbcb61cf5	-0.022230605
98	0xbd449d5f	-0.048001643
99	0x3dba130d	0.09085665
100	0x3b9d2024	0.004795091
101	0x3e63c7f2	0.22244242
102	0xbd8b5e53	-0.068051
103	0x3d2cc348	0.042178422
104	0xbd52e6f8	-0.0514898
105	0x3d685c26	0.056728505
106	0x3d963ee6	0.07336216
107	0xbd9f5987	-0.07780748
108	0x3b8400de	0.0040284237
109	0xbc0aee01	-0.008479596
110	0xbaee140d	-0.0018163935
111	0x3e5f2ce4	0.21794468
112	0xbcff0039	-0.031128036
113	0x3e4e5362	0.20148996
114	0xbd0bdca5	-0.03414597
115	0xbcc837c5	-0.024440655
116	0xbd38760a	-0.045034446
117	0xbd904f6d	-0.07046399
118	0xbcf1987e	-0.02949166
119	0x3c7a010f	0.015259041
120	0xbd68733b	-0.056750517
121	0x3e149c51	0.14512755
122	0x3dd2a4cc	0.10285339
123	0xbd2d7a23	-0.042352807
124	0xbd11845a	-0.03552661
125	0xbcfc102f	-0.030769436
126	0xbd30e86f	-0.043190416
127	0xbc1e6a45	-0.009668891

fc3.weight f4 [2, 128]
0	0x3def4f1c	0.11685011
1	0xbbd44ba9	-0.006478746
2	0x3ca1f160	0.019768417
3	0x3e2a5da0	0.16637278
4	0xbe50d995	-0.20395501
5	0x3e33b4cd	0.17549439
6	0xbe6967ab	-0.22793452
7	0x3dd61b1b	0.10454389
8	0x3e1b2446	0.15150556
9	0xbe5801c4	-0.21094424
10	0xbdf2c80a	-0.11854561
11	0x3e239efb	0.15978615
12	0xbdcf27d8	-0.101150215
13	0xbe522503	-0.20521931
14	0xbdf8461d	-0.12122748
15	0x3dbc6cb9	0.09200425
16	0xbe110fbf	-0.14166163
17	0xbd78e6cc	-0.06076698
18	0xbdf63566	-0.12021904
19	0x3d0786f4	0.033087686
20	0x3e13fd39	0.14452066
21	0xbe0dcbaf	-0.1384723
22	0x3dfb299b	0.12263795
23	0xbe4f1920	-0.20224428
24	0x3e7a323a	0.24433222
25	0xbe405e3a	-0.18785945
26	0x3e562461	0.20912315
27	0x3ca6729f	0.020318327
28	0xbdfe2bf9	-0.12410731
29	0x3e3a2521	0.18178226
30	0x3da4c8df	0.080461256
31	0xbc8db205	-0.0172968
32	0xbd9b37b3	-0.07578983
33	0x3c7f7e83	0.015594128
34	0xbe4881eb	-0.1958081
35	0xbe626194	-0.22107536
36	0x3e214675	0.15749533
37	0xbe1cb129	-0.15301956
38	0x3e2e826f	0.17041944
39	0xbe16ecbf	-0.14738749
40	0xbe858ae3	-0.26082525
41	0xbe0153b3	-0.12629585
42	0xbe1e2fce	-0.15447924
43	0xbd8e1765	-0.06938056
44	0xbdf834ca	-0.12119444
45	0x3d0fa593	0.035070013
46	0xbe5f36ec	-0.21798295
47	0xbe4f5b70	-0.20249724
48	0xbe5ead88	-0.21745884
49	0xbd5d7bb2	-0.054073043
50	0x3e430457	0.19044624
51	0xbe57641d	-0.21034284
52	0xbd8346f6	-0.06410019
53	0x3e0d6e95	0.13811715
54	0xbd8f29af	-0.069903724
55	0xbe224067	-0.1584488
56	0x3defb01e	0.117035136
57	0xbe37bb8a	-0.17942634
58	0x3e0ee3b7	0.13954054
59	0xbe165895	-0.14682229
60	0xbdc45b12	-0.09587683
61	0xbe05b3ab	-0.13056819
62	0x3e57da1a	0.21079293
63	0xbe15375c	-0.14571899
64	0xbe2c88d0	-0.16849065
65	0x3de60702	0.112318054
66	0x3c2a1f0f	0.0103833815
67	0xbe7592e4	-0.23981816
68	0xbebc053c	-0.36722744
69	0xbe22e230	-0.15906596
70	0x3e14cf21	0.14532138
71	0xbd4d07ef	-0.050056394
72	0xbe64769b	-0.2231087
73	0xbd43cc50	-0.04780227
74	0xbe2b8cf2	-0.16752985
75	0x3e46bc6a	0.19407812
76	0xbe2e0f48	-0.16998017
77	0xbe295aab	-0.16538493
78	0x3e3b435b	0.18287413
79	0xbe3e542d	-0.18586798
80	0x3ddf8f46	0.10915999
81	0xbd0b3164	-0.03398265
82	0xbe3d66d2	-0.18496254
83	0x3e452c81	0.19255258
84	0xbe43c604	-0.19118506
85	0xbe0ad17d	-0.13556476
86	0x3c8106c2	0.015750293
87	0xbe14c944	-0.14529902
88	0xbe0511cf	-0.12995075
89	0xbd3a745a	-0.045521118
90	0x3e2fadd1	0.1715615
91	0xbe04035e	-0.1289191
92	0x3e12de20	0.14342546
93	0xbe26b5c7	-0.1628028
94	0xbe2c0ff8	-0.16802967
95	0x3e4695e2	0.19393113
96	0x3e0c47eb	0.1369931
97	0x3dd6175c	0.10453674
98	0xbe266c24	-0.1625219
99	0xbdf7c8ec	-0.1209887
100	0xbe3d0716	-0.18459734
101	0xbc82fc4c	-0.015989445
102	0xbe2f2afa	-0.17106238
103	0xbe4f4bda	-0.20243779
104	0xbdbdb494	-0.09262958
105	0xbe83c168	-0.25733495
106	0xbe4053e8	-0.18782008
107	0x3d772abf	0.0603435
108	0xbe40feb8	-0.18847167
109	0x3dade7c9	0.08491475
110	0xbe5e6c4f	-0.21721004
111	0x3db634fe	0.08896826
112	0x3beacd3e	0.00716558
113	0x3deaa256	0.114567444
114	0xbe2f06a4	-0.17092377
115	0x3e286f15	0.16448624
116	0xbdbbd2ee	-0.09171091
117	0x3e1c4d67	0.15263902
118	0x3dddccfb	0.108301125
119	0x3e528c37	0.205613
120	0x3df73915	0.120714344
121	0xbe217291	-0.1576636
122	0x3dad4aae	0.0846151
123	0x3e08bd3d	0.13353439
124	0x3c9927dc	0.018695764
125	0xbe1f1a8e	-0.15537474
126	0x3e84631e	0.2585687
127	0x3e450ab2	0.19242361
128	0x3e0894e7	0.13338052
129	0xbede8e00	-0.43467712
130	0xbe9b2f8c	-0.30309713
131	0xbee2581c	-0.44207847
132	0xbdf1c1c0	-0.11804533
133	0xbe3076a4	-0.17232758
134	0xbc449292	-0.011997836
135	0x3e6ff0c5	0.2343169
136	0x3d210309	0.039309535
137	0xbd8a7f57	-0.067625694
138	0xbde46f36	-0.11154024
139	0x3d805d73	0.06267824
140	0x3e675970	0.22592711
141	0xbc7d7dea	-0.015471915
142	0xbe10f328	-0.14155257
143	0xbf040524	-0.51570344
144	0xbd12f001	-0.035873417
145	0xbebf6d5f	-0.3738813
146	0x3e747896	0.23874125
147	0x3e83d0c1	0.25745204
148	0x3e53f6db	0.20699637
149	0xbe0cdaa9	-0.13755287
150	0xbe591e7b	-0.21203034
151	0xbe644636	-0.22292408
152	0x3d37324b	0.044725697
153	0x3e679d54	0.2261861
154	0xbc504823	-0.012712511
155	0xbea569a4	-0.3230716
156	0xbe3d760f	-0.18502067
157	0xbd792699	-0.060827825
158	0xbeadf210	-0.33973742
159	0x3e78c749	0.24294771
160	0xbec2598a	-0.37958938
161	0xbe99dfb6	-0.3005349
162	0xbc1aaded	-0.009440881
163	0x3e133ddc	0.14379066
164	0xbdc43478	-0.0958032
165	0xbe84bf70	-0.25927305
166	0xbe1e3326	-0.15449199
167	0xbe0efbc5	-0.1396323
168	0xbdacb769	-0.0843342
169	0xbcc0fadc	-0.02355712
170	0xbdac6d3a	-0.08419271
171	0xbe3a5f30	-0.18200374
172	0xbe9e6670	-0.3093753
173	0xbeea1f6f	-0.45727107
174	0xbe0b46e7	-0.13601266
175	0xbb664f8b	-0.0035142626
176	0x3dcb0e27	0.09914809
177	0x3e40e150	0.1883595
178	0x3d9a4105	0.07531933
179	0xbdca4e36	-0.09878199
180	0xbe7d460b	-0.2473375
181	0x3e376f49	0.17913546
182	0xbe829e35	-0.25511327
183	0xbe43a1f7	-0.19104753
184	0x3e1b936d	0.15192957
185	0xbd5e8d27	-0.054333832
186	0xbec42f2b	-0.38317236
187	0x3d02d7dd	0.031944145
188	0xbee79ad9	-0.45235327
189	0xbdd48d85	-0.10378555
190	0x3e0a6bcc	0.13517684
191	0xbd867638	-0.06565517
192	0xbd29541d	-0.041339982
193	0xbe946363	-0.28982076
194	0xbed35890	-0.41278505
195	0xbe1b1f89	-0.15148748
196	0x3d8179fd	0.063220955
197	0x3e2ffe82	0.17186931
198	0x3dfebe4e	0.124386415
199	0xbea10c18	-0.3145454
200	0xbe303a2e	-0.17209694
201	0xbea5409d	-0.3227586
202	0xbe8f1751	-0.27947477
203	0xbe5a1a35	-0.2129906
204	0xbc80529f	-0.015664397
205	0xbc278f71	-0.01022707
206	0xbec1a9ab	-0.3782476
207	0xbdcba614	-0.09943786
208	0xbe68730a	-0.22700134
209	0x3e5514eb	0.20808761
210	0x3cfe4481	0.031038525
211	0xbe1a77f4	-0.15084821
212	0xbdc6947b	-0.09696289
213	0x3dc359ec	0.095386356
214	0xbe62c609	-0.22145857
215	0xbe03e16a	-0.12878957
216	0xbe32f9aa	-0.17478052
217	0xbe8ce803	-0.2752076
218	0xbd77ba8c	-0.06048064
219	0x3dcee674	0.10102549
220	0xbde6b80e	-0.112655744
221	0xbe461035	-0.1934212
222	0xbe14c3b8	-0.14527786
223	0xbe0bf420	-0.13667345
224	0x3e7e50d9	0.24835528
225	0xbea1b4bd	-0.31583205
226	0xbf0650f6	-0.52467287
227	0xbe61f07d	-0.22064395
228	0xbc417db7	-0.011809758
229	0x3e8f4bc8	0.27987504
230	0xbee2704b	-0.44226298
231	0xbda5ed84	-0.08101943
232	0xbee62087	-0.4494669
233	0xbd997c62	-0.07494427
234	0xbcfec1e1	-0.031098308
235	0xbe6133cb	-0.21992414
236	0xbe1b506d	-0.15167399
237	0xbeb84855	-0.35992685
238	0xbe699f00	-0.2281456
239	0x3e38771a	0.18014184
240	0xbe74625e	-0.23865649
241	0x3e6d5dd5	0.23180325
242	0xbb377575	-0.0027993594
243	0x3dfcb807	0.12339788
244	0xbe42a4e0	-0.19008207
245	0xbeb610ae	-0.355596
246	0x3e1e44d9	0.15455951
247	0x3e499c46	0.1968852
248	0xbe9c91d4	-0.30580008
249	0x3da6469e	0.08118938
250	0x3e613faf	0.2199695
251	0xbe6e4e10	-0.23271966
252	0xbeef1bfc	-0.46701038
253	0xbe040d7e	-0.12895772
254	0x3bd8d38d	0.0066170157
255	0xbe905ba0	-0.28194904

fc3.bias f4 [2]
0	0x3d86a339	0.06574101
1	0x3e3c4c74	0.1838854

bn1.weight f4 [128]
0	0x3eee55d0	0.46549845
1	0x3f6fb68c	0.9363792
2	0x3f094299	0.53617245
3	0x3e91e00d	0.2849125
4	0x3eaa0cbc	0.3321284
5	0x3f185002	0.5949708
6	0x3f1e230a	0.61772215
7	0x3f852905	1.0403143
8	0x3e741ef8	0.23839939
9	0x3f3b02c9	0.73051125
10	0x3f2c779f	0.6737003
11	0x3eb85c4b	0.36007914
12	0x3f6e3842	0.9305459
13	0x3f6cae88	0.92453814
14	0x3f35b02e	0.70971954
15	0x3f3e9437	0.7444491
16	0x3f4fd556	0.811849
17	0x3f051d10	0.5199747
18	0x3e773854	0.24142581
19	0x3f299b7a	0.66252863
20	0x3f5f157f	0.87142175
21	0x3f6e97a1	0.9320012
22	0x3efdf1fa	0.49598676
23	0x3f40088b	0.75013036
24	0x3f497840	0.7869911
25	0x3e95ea35	0.29280248
26	0x3f993c7e	1.1971586
27	0x3f4fe80a	0.8121344
28	0x3ed74499	0.42044523
29	0x3f4ff15f	0.8122768
30	0x3f8d7944	1.1052632
31	0x3ebc761e	0.36808866
32	0x3f212a86	0.6295551
33	0x3f4c1bf4	0.79730153
34	0x3f4e9530	0.8069639
35	0x3f174408	0.5908818
36	0x3f3da4af	0.7407941
37	0x3ec13088	0.3773234
38	0x3f8a0838	1.0783758
39	0x3f398eea	0.72483695
40	0x3e8bdb67	0.27315828
41	0x3ed73900	0.42035675
42	0x3f5f3424	0.87188935
43	0x3f36d8a7	0.71424335
44	0x3efc5bf9	0.4928892
45	0x3efb3e29	0.49070862
46	0x3f22dfc9	0.6362272
47	0x3ef8f890	0.48627138
48	0x3f926b88	1.1439066
49	0x3f75513c	0.9582708
50	0x3eddce4b	0.43321452
51	0x3f85364e	1.0407197
52	0x3f58cafb	0.84684724
53	0x3f2d397c	0.6766584
54	0x3eb392a6	0.3507282
55	0x3f14a93b	0.58070725
56	0x3f838f00	1.0278015
57	0x3f0d7394	0.55254483
58	0x3f20425b	0.6260125
59	0x3ea51678	0.32243705
60	0x3e8c2de9	0.27378777
61	0x3e9173e4	0.2840873
62	0x3ec7e12f	0.3903899
63	0x3f75c4c3	0.9600336
64	0x3eae9668	0.34099126
65	0x3eef254a	0.46708137
66	0x3f3b97e1	0.73278624
67	0x3e9c9db7	0.30589077
68	0x3f84eb49	1.0384303
69	0x3f697e6f	0.9120855
70	0x3f889c40	1.0672684
71	0x3ec85f91	0.3913541
72	0x3eb55bb2	0.3542152
73	0x3f702106	0.9380039
74	0x3f23b1dc	0.63943267
75	0x3f8c8640	1.097847
76	0x3f85563c	1.0416942
77	0x3ee35f18	0.44408488
78	0x3e1de7b5	0.1542042
79	0x3f4e4029	0.8056665
80	0x3f8a7675	1.08174
81	0x3f5a9438	0.85382414
82	0x3f888a2c	1.0667167
83	0x3f9cc567	1.2247742
84	0x3f6b9d5c	0.92036986
85	0x3f48c237	0.7842135
86	0x3ec07d4c	0.37595594
87	0x3edc863c	0.43071163
88	0x3eae2177	0.34009907
89	0x3f87ad91	1.0599843
90	0x3f185fdc	0.5952127
91	0x3f16bb18	0.5887923
92	0x3f772484	0.96540093
93	0x3f008413	0.5020153
94	0x3f7bfefb	0.98435944
95	0x3f5f1c1e	0.8715228
96	0x3f88aed4	1.0678353
97	0x3f2a9e81	0.6664811
98	0x3f949fb0	1.1611233
99	0x3f72159f	0.9456424
100	0x3ee4cc85	0.44687286
101	0x3ed33662	0.41252428
102	0x3edbb286	0.4290964
103	0x3f45b2da	0.7722603
104	0x3effa257	0.49928543
105	0x3f170ca3	0.5900366
106	0x3ed8e4c4	0.42362034
107	0x3f901c26	1.125859
108	0x3ec42b43	0.38314256
109	0x3f6c88bc	0.9239614
110	0x3f59df15	0.8510602
111	0x3ed41330	0.4142089
112	0x3f0a878d	0.54113084
113	0x3f0d9b68	0.55315256
114	0x3f85aeb7	1.0443944
115	0x3ecd7553	0.40128574
116	0x3f190860	0.59778404
117	0x3f153a1f	0.5829181
118	0x3f4ab082	0.7917558
119	0x3eaf1893	0.34198436
120	0x3f399c99	0.72504574
121	0x3f966e68	1.1752443
122	0x3eb26418	0.3484199
123	0x3f0bb74f	0.5457658
124	0x3f8ff39c	1.1246219
125	0x3f7b4406	0.9815067
126	0x3f710ff5	0.94164973
127	0x3f76d529	0.96419007

bn1.bias f4 [128]
0	0x3db51d3b	0.08843466
1	0x3c934f80	0.017982244
2	0xbddc9a7d	-0.10771654
3	0xbc7b5ee1	-0.015342445
4	0x3decf07f	0.115693085
5	0xbdaca4cc	-0.0842987
6	0x3c865c36	0.016401391
7	0x3ce67e4d	0.028136397
8	0x3defd69c	0.11710855
9	0xbc59e410	-0.013299003
10	0xbdd79ab4	-0.10527554
11	0x3d883fb9	0.06652779
12	0x3b9c7b5a	0.004775447
13	0x3d39c6ab	0.04535548
14	0x3c03eec0	0.008052528
15	0xbdcb340c	-0.099220365
16	0xbe272793	-0.1632369
17	0xbca51b38	-0.02015458
18	0xbde215c1	-0.110393055
19	0xbcb597ce	-0.022167113
20	0xbd5dc5f4	-0.05414386
21	0x3d0b13af	0.03395432
22	0x3cd88878	0.02643226
23	0xbd2a594c	-0.041589066
24	0x3cf39016	0.029731791
25	0xbd02a11d	-0.03189193
26	0x3d19a882	0.037514217
27	0xbdeacb58	-0.11464566
28	0xbd0d2f89	-0.03446916
29	0xbd9de962	-0.0771053
30	0x3c537b06	0.012907749
31	0xbd3c5040	-0.04597497
32	0x3c24dd40	0.010062516
33	0xbd928978	-0.07155126
34	0x3d167443	0.03673197
35	0x3c951bb9	0.018201696
36	0xbda248ae	-0.07924019
37	0xbd509bb6	-0.050929748
38	0x3d40d4e3	0.047078025
39	0xbd1a9176	-0.03773638
40	0xbcc367c7	-0.023853196
41	0xbd33e72b	-0.04392163
42	0xbb575b67	-0.0032860877
43	0xbd46a361	-0.048495654
44	0xbba40d4c	-0.005006468
45	0xbce677dc	-0.028133325
46	0x3d3cfaff	0.046137806
47	0x3c94cd9c	0.018164448
48	0x3c68b4a3	0.014203223
49	0xbc58aac7	-0.01322431
50	0xbcea2cb1	-0.028585764
51	0x3d0b8b40	0.034068346
52	0x3d4d85cf	0.050176438
53	0xbdeb092c	-0.11476359
54	0xbe55fa85	-0.20896347
55	0xbd39d50b	-0.04536919
56	0xbc7aa204	-0.015297417
57	0xbc2fa6f8	-0.010720961
58	0xbda31549	-0.07963044
59	0xbdab7346	-0.08371596
60	0xbcaab5fc	-0.02083873
61	0xbd85f87a	-0.06541534
62	0x3d809ff3	0.06280508
63	0xbcf8cb5b	-0.030370405
64	0xbd1a2401	-0.037631992
65	0x3e60821f	0.21924637
66	0xbcb02190	-0.021500379
67	0xbdb6ff6c	-0.089354366
68	0xbde8b29e	-0.113621935
69	0x3c38c031	0.011276291
70	0xbdecbf0f	-0.11559879
71	0xbac9f28a	-0.0015407365
72	0x3d983871	0.0743264
73	0x3cfd4729	0.03091772
74	0xbd1d3613	-0.038381647
75	0x3c92def1	0.017928572
76	0xbd1391e3	-0.0360278
77	0x3d8a19b4	0.06743184
78	0xbe0931a3	-0.13397841
79	0xbcdebf70	-0.027190894
80	0xbd58a6e4	-0.052893534
81	0xbc955d35	-0.018232921
82	0xbb7aaef2	-0.0038251248
83	0x3d47a842	0.048744448
84	0xbd922b1b	-0.07137128
85	0x3cab8882	0.020939115
86	0x3d765096	0.060135446
87	0x3b564da1	0.003270008
88	0xbd8555a6	-0.06510477
89	0xbd4b1a63	-0.04958571
90	0x3daa2b4c	0.083090395
91	0x3d028b2b	0.031871002
92	0xbd81d5da	-0.06339617
93	0xbe15afbb	-0.14617817
94	0xbdb67d7e	-0.089106545
95	0x3d0284fb	0.0318651
96	0xbd3df8d3	-0.046379875
97	0x3ac26ac8	0.0014832849
98	0x3d9503db	0.07276126
99	0x3dd5697c	0.1042051
100	0x3d6b28c6	0.05741193
101	0x3c1302e1	0.008972854
102	0xbe0a8ded	-0.13530703
103	0xbcf4905d	-0.029853994
104	0xbca2a0aa	-0.019852001
105	0xbd4d5691	-0.050131384
106	0x3df38076	0.11889736
107	0x3c7ec008	0.0155487135
108	0xbcce7511	-0.025202306
109	0x3d7c52cf	0.06160241
110	0xbc288f94	-0.010288138
111	0xbd936691	-0.07197297
112	0xbbcae285	-0.006191554
113	0x3c8bba62	0.017056648
114	0xbdd87555	-0.10569254
115	0x3cbe4293	0.023225104
116	0x3da3511f	0.07974457
117	0x3d9c9b7a	0.07646842
118	0xbc376fb3	-0.011196065
119	0xbc9b7ef6	-0.018981438
120	0x3d3ddf23	0.046355378
121	0xbe1b4278	-0.15162075
122	0x3e2a25d1	0.16615988
123	0xbd9e8b67	-0.07741433
124	0xbde8b5cc	-0.113628
125	0xbda49260	-0.08035731
126	0x3d81bec5	0.063352145
127	0xbdc23ee3	-0.09484651

bn1.running_mean f4 [128]
0	0x3eb179a4	0.34663117
1	0x3fd3df58	1.6552534
2	0x3f13749e	0.5759982
3	0x3ed7cb99	0.4214752
4	0x3ecaa3d6	0.39578122
5	0x3f1d9eab	0.61570233
6	0x40140dbb	2.313338
7	0x3ea2f0d4	0.31824362
8	0x3f146389	0.5796438
9	0x3f688798	0.908319
10	0x3e9ce0bf	0.30640218
11	0x3e26e0d2	0.162967
12	0x3e5530fd	0.20819469
13	0x3e11a3aa	0.14222589
14	0x3de0e4d7	0.10981148
15	0x3ddb2712	0.107008114
16	0x3e087cdb	0.13328879
17	0x3dfcd09d	0.12344477
18	0x3f08dbab	0.53460187
19	0x3e63d963	0.22250895
20	0x3f23c429	0.6397119
21	0x3f92df0b	1.1474317
22	0x3ec8bab1	0.39204934
23	0x3ebd99a4	0.3703128
24	0x3ebf2c5b	0.37338528
25	0x3f00ed00	0.50361633
26	0x3e6b61bf	0.22986506
27	0x3f0ccf5b	0.550039
28	0x3f1f57dd	0.62243444
29	0x3d84967c	0.06474015
30	0x3eb9ed8b	0.36314043
31	0x3c71768b	0.0147377355
32	0x3e3aec7c	0.18254274
33	0x3e818a40	0.2530079
34	0x3f017a17	0.5057692
35	0x3ee2087f	0.44147107
36	0x3feda113	1.8564781
37	0x3e3d84cb	0.18507688
38	0x3f49e87f	0.78870386
39	0x3e5de0b6	0.21667752
40	0x3eaa2d35	0.33237615
41	0x3ffc7691	1.9723684
42	0x3e344b50	0.17606854
43	0x3e91c37f	0.28469464
44	0x3e6c63a1	0.2308488
45	0x3f92021d	1.1406895
46	0x3ebe7da0	0.3720522
47	0x3f8cdd49	1.1005031
48	0x3d670a3b	0.05640624
49	0x3ff23fd8	1.8925734
50	0x3d2837ee	0.041068964
51	0x3f9aea67	1.2102784
52	0x3f7c77bf	0.9862022
53	0x3f2231d3	0.63357276
54	0x3f8dc8ce	1.1076906
55	0x3d99abbc	0.07503459
56	0x3f5e413d	0.86818296
57	0x3ebc7c49	0.36813572
58	0x3e515f65	0.20446546
59	0x3f86a95d	1.0520436
60	0x3eba76a2	0.36418635
61	0x3f1317c6	0.5745815
62	0x3c8f20a5	0.01747162
63	0x3f98a9a7	1.1926774
64	0x3e284734	0.16433412
65	0x3daba8c0	0.08381796
66	0x3ee99644	0.45622456
67	0x3fcf84c3	1.6212391
68	0x3e2f41b0	0.17114902
69	0x3f96ef19	1.1791717
70	0x3f243565	0.64143974
71	0x3f5458a2	0.8294774
72	0x3ebab6cf	0.36467597
73	0x3ed60eed	0.41808262
74	0x3e1ade0b	0.15123765
75	0x3e0f6333	0.14002685
76	0x3fa3afc9	1.278802
77	0x3f1ebc67	0.6200623
78	0x3f9b39ee	1.2127054
79	0x3e817d69	0.25290993
80	0x3f5fad07	0.87373394
81	0x3fe5e41f	1.7960242
82	0x4044790b	3.0698879
83	0x3f10be95	0.56540805
84	0x3fbe4a4f	1.4866427
85	0x400c24af	2.189739
86	0x3ed8b5bf	0.4232616
87	0x3f8f9b9c	1.1219363
88	0x3f81d42b	1.0142874
89	0x3ef6349f	0.48087022
90	0x3da48be2	0.08034493
91	0x3f6ab04d	0.91675264
92	0x3ea9e884	0.33185208
93	0x3ee61d54	0.4494425
94	0x3f62a6b2	0.88535607
95	0x3ec5d2a4	0.3863727
96	0x3f2af6cd	0.6678284
97	0x3d02a0c5	0.031891603
98	0x3ec24b76	0.37948197
99	0x3ec5b39c	0.38613594
100	0x3e3fd8c5	0.18735035
101	0x3d393ca8	0.045223862
102	0x3e0874c5	0.13325794
103	0x3e710ac6	0.23539266
104	0x3e81860f	0.2529759
105	0x3f63290f	0.88734525
106	0x3f1c0501	0.60945135
107	0x3e09e199	0.13464965
108	0x3f1fadea	0.62374747
109	0x3fbe1db7	1.4852818
110	0x3f5022df	0.8130321
111	0x3f03c960	0.5147915
112	0x3e18180e	0.14852926
113	0x3f0d0dd1	0.5509921
114	0x3e6f5920	0.23373842
115	0x3e88609f	0.26636216
116	0x3f365dc6	0.71236837
117	0x3f8ae088	1.0849771
118	0x3fa26679	1.2687522
119	0x3dc13997	0.094348125
120	0x3f16ec44	0.5895426
121	0x3e977f64	0.2958938
122	0x3d4e80e6	0.050415896
123	0x3fb3f86c	1.4060187
124	0x3f631bc1	0.88714224
125	0x3f88d150	1.0688877
126	0x3f96e9c8	1.1790094
127	0x3da529b2	0.080645934

bn1.running_var f4 [128]
0	0x3f3080f6	0.6894678
1	0x400e191f	2.2202833
2	0x3f2917cc	0.66051936
3	0x3f47208c	0.7778404
4	0x3f02e2c0	0.51127243
5	0x3f49a6bd	0.7877005
6	0x3ed53cad	0.41647854
7	0x3eaeed57	0.3416545
8	0x3fa7d833	1.3112854
9	0x4000914e	2.0088687
10	0x3e20abd3	0.15690546
11	0x3de6572c	0.112470955
12	0x3e8d603c	0.27612484
13	0x3dff025c	0.12451622
14	0x3df06c4e	0.117394075
15	0x3d5491be	0.051896803
16	0x3e070678	0.13186061
17	0x3d889f9b	0.06671067
18	0x3fe3a72a	1.778539
19	0x3ea70916	0.3262412
20	0x3f93dc38	1.155158
21	0x3fe3a4a1	1.7784616
22	0x3ed43954	0.41449988
23	0x3f549869	0.8304506
24	0x3eb0d2d3	0.34535846
25	0x3f9697c4	1.1765065
26	0x3f200da0	0.6252079
27	0x3ea77513	0.32706508
28	0x3f9dab15	1.2317835
29	0x3d2e36b1	0.042532627
30	0x3ecd8d52	0.4014688
31	0x3c0a14b1	0.008427785
32	0x3e3493eb	0.17634551
33	0x3e58cbe1	0.21171524
34	0x3f063510	0.52424717
35	0x3f1fdd0d	0.6244667
36	0x4020f3cc	2.5148802
37	0x3e49d4d7	0.19710098
38	0x3feff97c	1.8748012
39	0x3ef2d26d	0.47426167
40	0x3eba2543	0.36356553
41	0x40416cfe	3.0222774
42	0x3e849d66	0.25901335
43	0x3ed5f2dc	0.4178685
44	0x3e967487	0.29385778
45	0x4023696e	2.55331
46	0x3ee30a04	0.4434358
47	0x3fe845e2	1.8146327
48	0x3d2722eb	0.040804785
49	0x40346bf9	2.8190901
50	0x3cc26796	0.023731034
51	0x400b7aa5	2.1793606
52	0x3eb0d4ec	0.34537446
53	0x3fc6f699	1.5544006
54	0x3f6b0df4	0.91818166
55	0x3d107644	0.035269037
56	0x4005e384	2.0920115
57	0x3ea57729	0.32317474
58	0x3e14e629	0.14540924
59	0x3ff1be70	1.8886242
60	0x3f509cd2	0.8148929
61	0x3f0d2973	0.5514137
62	0x3c5b543f	0.013386785
63	0x4023a703	2.5570686
64	0x3e6ce155	0.23132832
65	0x3de98169	0.11401636
66	0x3f6b2f24	0.91868806
67	0x409c6b1c	4.888075
68	0x3e0b31a1	0.1359315
69	0x3fa21d52	1.2665198
70	0x3f229a7b	0.6351697
71	0x3f96b526	1.1774032
72	0x3e865a4f	0.26240775
73	0x3ee75b36	0.45186776
74	0x3e125080	0.14288521
75	0x3ce8e39a	0.028428841
76	0x406ac21f	3.6680982
77	0x3f39dccf	0.7260255
78	0x4028580f	2.6303747
79	0x3f004e5b	0.5011956
80	0x3fde20b9	1.7353736
81	0x402d26af	2.705486
82	0x3ff25488	1.8932047
83	0x3f05997b	0.5218732
84	0x40901537	4.5025897
85	0x3ff07bd3	1.8787788
86	0x3eeac21d	0.45851222
87	0x402e8d0a	2.7273583
88	0x3fd4ba8d	1.6619431
89	0x3fa51722	1.2897685
90	0x3dc71537	0.09720843
91	0x40095e28	2.1463718
92	0x3f68ef5b	0.9099023
93	0x3f1ee2a2	0.62064564
94	0x3fd2dafc	1.6473079
95	0x3f0a567d	0.5403822
96	0x3f1b89a5	0.60756904
97	0x3c91b86d	0.017788136
98	0x3e784ee8	0.2424885
99	0x3f604f49	0.8762098
100	0x3e46e03f	0.1942148
101	0x3d0e7592	0.034780093
102	0x3dca6801	0.098831184
103	0x3e8e926a	0.2784608
104	0x3eda42a4	0.42628968
105	0x3ff2f3a2	1.8980601
106	0x3f37cb61	0.71794707
107	0x3e26dcbd	0.16295142
108	0x3fa290f9	1.2700492
109	0x3fefd9ff	1.8738402
110	0x3fdebfec	1.740232
111	0x3fd4d644	1.6627889
112	0x3e8a1d30	0.26975393
113	0x3f82907a	1.0200341
114	0x3ef4276b	0.47686324
115	0x3e307f08	0.17235959
116	0x3fc9d5b0	1.5768337
117	0x3f764b91	0.96209055
118	0x407f3d96	3.988134
119	0x3db3a0fe	0.08770941
120	0x3f45075a	0.7696434
121	0x3ee29836	0.44256753
122	0x3d1af69d	0.037832845
123	0x3f90f484	1.132462
124	0x3fc923e7	1.5714082
125	0x404b3f6c	3.175746
126	0x4002db23	2.044625
127	0x3dd23711	0.10264409
