checkpoint_critic_1.pth (torch_old, 83890 bytes, 9 tensors)

fcs1.weight f4 [128, 24]
0	0xbc424283	-0.011856678
1	0xbd9aba59	-0.07555074
2	0xbd4be9bb	-0.04978345
3	0xbcc9a920	-0.024616778
4	0x3d4b4b0b	0.049632113
5	0xbd8d7100	-0.06906319
6	0x3d719b31	0.058985893
7	0x3d0e0889	0.03467611
8	0xbda66c88	-0.081261694
9	0x3d0b9d7b	0.034085732
10	0xbd69e931	-0.057107154
11	0xbd384a47	-0.04499271
12	0xbddf7f06	-0.109129
13	0x3ce65983	0.028118854
14	0x3d83e6b6	0.06440489
15	0x3ccfef89	0.025382774
16	0x3ca4e730	0.02012977
17	0x3d3d28f7	0.046181645
18	0x3cdea7e6	0.02717967
19	0x3d5ebcd8	0.054379314
20	0xbd0c510f	-0.03425699
21	0x3e1e0a05	0.1543351
22	0xbcb3f1ce	-0.021965887
23	0xbc5a6e8c	-0.0133320205
24	0xbcee78b3	-0.029110288
25	0xbd824a15	-0.06361786
26	0xbdb9115c	-0.09036514
27	0xbabe415e	-0.001451533
28	0x3c00491f	0.007829933
29	0xbd2ebb43	-0.042659055
30	0x3ce1ac20	0.027547896
31	0x3c30d1bb	0.010792191
32	0x3d80e22f	0.06293141
33	0xbe1d329b	-0.15351336
34	0xbdb543ab	-0.08850797
35	0x3d297de1	0.041379813
36	0xbd8cb1bf	-0.0686984
37	0x3cf80aab	0.030278524
38	0xbd5b8b2d	-0.053599525
39	0xbc28ff33	-0.0103147505
40	0x3d18be9d	0.037291158
41	0xbd4fd43d	-0.050739516
42	0xbc713abf	-0.014723479
43	0xbd495755	-0.049155552
44	0xbcf643f9	-0.030061709
45	0xbd2750e4	-0.040848628
46	0x3c96a89e	0.01839095
47	0x3dc81110	0.097688794
48	0xbd37cd5c	-0.04487358
49	0x3d154d5d	0.036450732
50	0xbb64c36f	-0.0034906527
51	0xbb3042cb	-0.002689528
52	0xbe583510	-0.21113992
53	0xbdf63340	-0.12021494
54	0xb98621ce	-0.00025583658
55	0x3c073aa0	0.008253723
56	0xbc6fc00c	-0.01463319
57	0x3cfe7b5f	0.031064687
58	0x3c7af6fb	0.015317674
59	0x3c43c0e4	0.011947844
60	0xbe12f15a	-0.14349881
61	0x3d5b87b1	0.053596202
62	0xbcc1e32b	-0.023667892
63	0x3898c667	7.28488e-05
64	0x3dd75418	0.105140865
65	0xbd0824d3	-0.033238243
66	0x3c10d9b4	0.008840967
67	0xbd9a52db	-0.07535335
68	0x3d05cb66	0.03266468
69	0x3de03543	0.10947659
70	0xbc93bd3e	-0.018034574
71	0x3d534336	0.05157777
72	0xbc80e11a	-0.015732337
73	0x3d190278	0.03735587
74	0x3c2d01da	0.0105595235
75	0xbc8dcc9c	-0.01730948
76	0x3e059506	0.13045129
77	0x3d12d566	0.035848044
78	0xbc1dab5d	-0.009623376
79	0x3cac92ab	0.02106603
80	0x3cd93c0b	0.026517889
81	0x3d9f3dd2	0.07775463
82	0x3d6d14a3	0.05788101
83	0x3ca87da6	0.020567726
84	0x3e4d2769	0.20034565
85	0x3c2cac19	0.010539078
86	0xbd6d8490	-0.05798775
87	0xbcc0fb77	-0.023557408
88	0xbc2343df	-0.009964912
89	0xbdcfb380	-0.10141659
90	0x3c036d97	0.008021734
91	0x3d169e1d	0.036771882
92	0x3ecfb320	0.4056635
93	0xbb394585	-0.0028270197
94	0xbbe0287c	-0.0068407636
95	0xbc62217f	-0.013801931
96	0xbd0e221d	-0.0347005
97	0xbccd010e	-0.025024917
98	0xbce57d34	-0.028013803
99	0x3cfca654	0.03084103
100	0x3dd1b226	0.10239057
101	0xbd761378	-0.06007716
102	0x3d052b33	0.0325119
103	0x3cd35c86	0.025800955
104	0x3da94ea3	0.08266952
105	0x3dec350c	0.115335554
106	0x3d95ae6a	0.073086575
107	0x3c86134e	0.016366627
108	0x3db069ba	0.08613916
109	0xbd65ece2	-0.056134112
110	0xbd2346d2	-0.03986246
111	0xbd5d4cd1	-0.054028336
112	0x3de3d637	0.111248426
113	0x3cb7cffa	0.022438038
114	0x3c0c924e	0.008579804
115	0xbcf1ba0d	-0.029507661
116	0x3d1d9b2c	0.03847806
117	0xbd81efd4	-0.06344572
118	0xbc641008	-0.013919838
119	0xbd23fa0b	-0.04003338
120	0x3d94ee37	0.072719984
121	0xbd134ed0	-0.035963833
122	0x3c3023e7	0.010750747
123	0x3c26789c	0.010160591
124	0xbd4dd816	-0.050254904
125	0x3db19efc	0.08672902
126	0x3b048e8c	0.0020226566
127	0xbca4f322	-0.020135466
128	0x3d8816bc	0.06644961
129	0xbd85a18b	-0.065249525
130	0x3bb1bc15	0.0054240325
131	0x3cde4a75	0.027135113
132	0xbe0aef96	-0.13567957
133	0xbb8a14fe	-0.0042139282
134	0xbccc73dc	-0.02495759
135	0xbd24d9d9	-0.04024682
136	0x3d392399	0.045199964
137	0xbe1ec3ea	-0.15504423
138	0xbd1a3c02	-0.037654884
139	0xbcbf7d21	-0.023375096
140	0xbd9d72e3	-0.076879285
141	0x3ded7810	0.11595166
142	0xbb925cb0	-0.0044666156
143	0x3d83da34	0.06438103
144	0x3d9d4fe1	0.07681251
145	0x3b04d14e	0.0020266357
146	0x3d6a5348	0.05720833
147	0xbceace95	-0.02866296
148	0x3c3d62ba	0.011559183
149	0xbd7c06e1	-0.061529998
150	0x3d28431d	0.04107963
151	0xbd86b1af	-0.06576859
152	0xbd4cbdb2	-0.049985595
153	0x3dc31431	0.095253356
154	0xbc3cb3cc	-0.011517476
155	0xbcace31c	-0.021104388
156	0x3d993eaf	0.07482659
157	0x3cc16a86	0.023610365
158	0xbbdca2f4	-0.0067332927
159	0xbd12a82e	-0.03580492
160	0xbd8c523f	-0.06851625
161	0x3d3a4c46	0.045482896
162	0xbd35e57e	-0.044408314
163	0x3da2bd66	0.07946281
164	0x3d4ad547	0.049519803
165	0x3d7c3ad6	0.061579548
166	0xbcd62130	-0.026138872
167	0x3defe9a0	0.11714482
168	0x3cb77cf9	0.022398459
169	0xbc70286f	-0.014658078
170	0x3d6ab630	0.057302654
171	0x3ce16195	0.027512351
172	0xbd9e2fc8	-0.07723957
173	0xbd2bdc4a	-0.04195813
174	0xbc86d3f9	-0.016458498
175	0x3c4e597a	0.012594575
176	0x3d2838ff	0.04106998
177	0xbd1ffc1b	-0.039058786
178	0x3b9251da	0.004465324
179	0x3cc97cb1	0.02459559
180	0xbdfc6753	-0.12324395
181	0x3cf0bd1a	0.029387046
182	0x3ccbdc16	0.024885219
183	0xbd45fcab	-0.048336666
184	0xbd29c057	-0.041443195
185	0xbbf972f8	-0.0076125823
186	0xbcecabae	-0.028890457
187	0xbcacf91f	-0.021114884
188	0xbdbebcd9	-0.093133636
189	0x3d8e96dd	0.06962369
190	0xbd74bc14	-0.059749678
191	0xbca8f5a2	-0.02062494
192	0xbe0b2689	-0.13588919
193	0xbd7b2917	-0.061318483
194	0xbd7ea36d	-0.062167574
195	0xbcc37e01	-0.023863794
196	0xbd9f8c58	-0.0779044
197	0x3dc2b613	0.09507384
198	0x3d7d76de	0.06188094
199	0x3cdfe0b3	0.027328825
200	0xbe16bab3	-0.14719658
201	0xbd486363	-0.048922908
202	0x3ba34a08	0.0049831904
203	0xbd390694	-0.04517229
204	0xbda89066	-0.08230667
205	0x3c744e60	0.014911264
206	0xbd3b2a7f	-0.045694824
207	0x3d66f79d	0.056388486
208	0xbdf79386	-0.12088685
209	0x3d215343	0.039386045
210	0x3d461a06	0.04836466
211	0xbd4d409d	-0.05011045
212	0xbcc6d698	-0.024272248
213	0xbe10f2b0	-0.14155078
214	0x3c94a080	0.018142939
215	0x3ab4f95a	0.0013807223
216	0xbce0130f	-0.027352838
217	0xbd41c3d9	-0.047305916
218	0x3cd90f67	0.026496602
219	0xbcb74e2c	-0.022376142
220	0x3bdd7bf7	0.0067591625
221	0xbc74af19	-0.014934325
222	0xbcc36efa	-0.023856629
223	0x3c4494fd	0.011998412
224	0xbcf56d93	-0.029959476
225	0xbce9fe7a	-0.028563727
226	0xbc539959	-0.012914979
227	0x3d6add97	0.05734023
228	0xbd340b7b	-0.04395626
229	0xbd3f3157	-0.046677914
230	0x3c81a543	0.015825873
231	0xbd49ac5e	-0.049236648
232	0x3d485349	0.048907552
233	0xbbb0c90f	-0.005395062
234	0xbc8f1eb5	-0.017470697
235	0x3d0f0f71	0.034926835
236	0x3d195e7d	0.037443627
237	0xbe9e8c23	-0.3096629
238	0x3c463342	0.012097182
239	0xbcb9d080	-0.022682428
240	0xbce54f38	-0.027991876
241	0x3c316dfb	0.010829444
242	0xbdc6b5b1	-0.09702624
243	0xbc70ea3b	-0.014704282
244	0xbdd98b4e	-0.106222734
245	0x3da85a7d	0.08220384
246	0xbb8e4829	-0.0043420983
247	0xbc4ffe59	-0.012694919
248	0xbbae3e4b	-0.0053174845
249	0x3cfb1ff4	0.030654885
250	0xbdb7e120	-0.08978486
251	0xbd8d74c4	-0.06907037
252	0xbd429e0b	-0.047514003
253	0x3d858dff	0.06521224
254	0xbb918d98	-0.004441928
255	0x3cf8c0d7	0.03036539

fcs1.bias f4 [128]
0	0x3d5b598c	0.053552195
1	0x3b7947b5	0.0038037125
2	0x3d31bd51	0.043393437
3	0x3e3ce9cf	0.18448566
4	0xbe483359	-0.19550838
5	0xbda2489d	-0.07924006
6	0x3db8d121	0.09024263
7	0xbdc18e64	-0.09450987
8	0xbdbceda9	-0.092250176
9	0x3ddc1284	0.10745719
10	0xbe27c803	-0.16384892
11	0x3a8ed61a	0.0010897547
12	0x3dde52b8	0.10855621
13	0xbe0bf43d	-0.13667388
14	0x3d274801	0.040840153
15	0xbe26e6da	-0.16299
16	0xbdb905fd	-0.09034345
17	0xbcc90ead	-0.02454313
18	0x3de383e5	0.11109141
19	0xbd59a5d2	-0.053136654
20	0x3d259dab	0.040433567
21	0x3e3853be	0.18000695
22	0xbe67c1f4	-0.22632581
23	0xbd932b2c	-0.07185969
24	0x3dea07f8	0.11427301
25	0x3e04ddfc	0.12975305
26	0xbe164088	-0.14673054
27	0x3e081b1b	0.1329159
28	0xbe20865e	-0.15676257
29	0xbe484167	-0.19556199
30	0x3e3e9de3	0.18614917
31	0xbcff676e	-0.031177249
32	0x3dc584af	0.09644448
33	0xbe161e4b	-0.14659993
34	0x3e03b247	0.12860976
35	0x3db11dab	0.08648237
36	0x3e2bc6a4	0.16774994
37	0x3d8ef84b	0.06980952
38	0xbe15625f	-0.14588307
39	0xbd6ad613	-0.057333063
40	0xbd1d06c8	-0.038336545
41	0xbe067626	-0.13131008
42	0x3da1f617	0.07908266
43	0x3e28b4e5	0.16475256
44	0xbe1bf7b7	-0.15231214
45	0x3e280a69	0.16410221
46	0x3e19f684	0.15035444
47	0xbd92a5b1	-0.071605094
48	0x3e13eb70	0.14445281
49	0x3e68a9a2	0.2272096
50	0x3c98dd6a	0.018660266
51	0x3e180708	0.14846432
52	0xbd104292	-0.035219736
53	0xbd30c914	-0.043160513
54	0x3e352f6b	0.1769387
55	0xbe2b9a75	-0.1675814
56	0xbe87aa06	-0.26496905
57	0x3d99d410	0.07511151
58	0xbe069d33	-0.13145904
59	0x3da6f960	0.08153033
60	0x3e1328d9	0.14371051
61	0xbd3800e6	-0.04492273
62	0xbe1f8330	-0.15577388
63	0x3b82c192	0.0039903605
64	0x3d36bf52	0.04461605
65	0xbe518fb1	-0.2046497
66	0xbd4a123a	-0.04933379
67	0x3d6738fc	0.05645083
68	0x3e5c0b6c	0.21488732
69	0x3d8e60b8	0.069520414
70	0x3d923e70	0.07140815
71	0xbd17431f	-0.036929246
72	0x3db35b58	0.08757657
73	0x3dee9ad7	0.11650627
74	0xbd7496dd	-0.059714187
75	0xbc4a3fca	-0.01234431
76	0x3e3720a9	0.17883553
77	0xbe20a42c	-0.15687627
78	0x3d70a599	0.058751676
79	0x3dfe045e	0.12403177
80	0x3c72dd11	0.014823214
81	0xbd26a94b	-0.040688794
82	0xbe225221	-0.15851642
83	0x3d0c3fae	0.034240417
84	0x3e171553	0.14754228
85	0xbda5cb96	-0.080954716
86	0x3cedabb5	0.02901254
87	0x3d4561d7	0.04818901
88	0xbe082221	-0.13294269
89	0xbe560476	-0.20900139
90	0x3d58d01b	0.05293284
91	0xbdb83d4e	-0.08996068
92	0x3e5eb02b	0.2174689
93	0xbd190873	-0.037361573
94	0x3d00e444	0.03146769
95	0x3ba860d5	0.0051384964
96	0x3dd1d432	0.10245551
97	0x3dc735d6	0.09727065
98	0xbd8006c5	-0.06251291
99	0x3e6c6812	0.23086575
100	0x3dab967a	0.083783105
101	0xbd336b03	-0.043803226
102	0xbe24b13a	-0.16083232
103	0xbda90289	-0.08252437
104	0xbdd3db99	-0.10344619
105	0xbd81f324	-0.063452035
106	0x3d4c6e98	0.049910158
107	0x3b2c8bc1	0.0026328417
108	0xbe365384	-0.17805296
109	0xbdbd0729	-0.09229881
110	0xbda68f81	-0.0813284
111	0xbd9e3e78	-0.07726759
112	0x3dd4fc99	0.10399742
113	0x3e0b4c49	0.13603319
114	0x3dfa1d5e	0.122126326
115	0xbc3e4559	-0.011613213
116	0xbcff4555	-0.03116099
117	0xbe1a9fbd	-0.15099998
118	0xbe1b2ba1	-0.15153362
119	0x3cde63a4	0.027147122
120	0xbdeffafa	-0.11717792
121	0x3c4ef710	0.0126321465
122	0x3d388a68	0.04505387
123	0xbe030fc2	-0.1279898
124	0xbe459b71	-0.19297577
125	0xbe430c76	-0.19047722
126	0xbd213899	-0.039360616
127	0x3def7c5c	0.116936415

fc2.weight f4 [128, 130]
0	0x3d9bced4	0.07607809
1	0x3d218d45	0.039441366
2	0x3d8f378d	0.06993017
3	0x3da4e30d	0.08051119
4	0xbb34773e	-0.0027536894
5	0xbb7e2f23	-0.003878542
6	0x3c7465bf	0.014916836
7	0xbdabcf56	-0.083891556
8	0xbd10f211	-0.035387103
9	0x3d2c5bb0	0.042079628
10	0xbb57e29a	-0.0032941462
11	0x3bdab189	0.006673996
12	0x3d034390	0.032046854
13	0xbd3b1d88	-0.04568246
14	0x3c8b6c84	0.017019518
15	0x3c148d54	0.009066898
16	0xbd37ad12	-0.044842787
17	0x3c3643d2	0.011124568
18	0xbd8baa51	-0.06819595
19	0xbb1efc76	-0.0024259365
20	0x3dc4aad5	0.09602896
21	0xbda444f7	-0.080209665
22	0xbd35d5cf	-0.044393357
23	0xbdb13f10	-0.08654606
24	0xbd12713a	-0.035752513
25	0x3c606ffe	0.013698576
26	0xbd9ca594	-0.07648769
27	0x3d7fba5a	0.062433578
28	0xbc491b02	-0.012274506
29	0x3d06ef0c	0.032942817
30	0xbda36331	-0.07977904
31	0x3d384664	0.044989005
32	0x3c45e4bc	0.01207846
33	0x3d595a6c	0.05306475
34	0xbd9628e8	-0.07332021
35	0x3bf0ad08	0.0073448457
36	0x3d422006	0.04739382
37	0xbdaf3f41	-0.085569866
38	0xbd888efc	-0.06667897
39	0xbcbf2531	-0.023333164
40	0xbd1db515	-0.03850277
41	0x3da8fc36	0.082512304
42	0xbd10156e	-0.035176687
43	0x3d80a401	0.06281281
44	0x3ce9de2b	0.02854832
45	0xbb36c501	-0.002788842
46	0xbca45a78	-0.02006267
47	0x3dce9217	0.10086458
48	0xbd72f605	-0.059316654
49	0xbc6c38dd	-0.014417854
50	0x3d4262be	0.04745745
51	0xbd38b12c	-0.04509084
52	0x3d957e10	0.07299435
53	0xbdbc7a88	-0.092030585
54	0x3d15ee4d	0.036604214
55	0x3d1e5e5e	0.038664214
56	0xbd35f085	-0.04441883
57	0xbd6a747c	-0.057239994
58	0x3d6354e4	0.05550088
59	0x3cc2e180	0.023789167
60	0xbdbc1aa4	-0.09184769
61	0xbc158c54	-0.009127695
62	0x3d980651	0.0742308
63	0xbdc88e00	-0.09792709
64	0x3c7c3770	0.015394077
65	0xbd5ca922	-0.053872235
66	0x3d1d455c	0.038396224
67	0xbaa9332b	-0.0012908926
68	0xbc96ecc5	-0.018423447
69	0x3d1253f7	0.035724606
70	0xbd2521cf	-0.040315446
71	0xbd0babaa	-0.03409926
72	0x3db5be0d	0.0887414
73	0x3be0433d	0.006843953
74	0x3d965adc	0.07341549
75	0xbd482d6b	-0.04887144
76	0xba91ae43	-0.0011114556
77	0xbd3c4bf6	-0.04597088
78	0x3d06fdd8	0.032956928
79	0x3e248742	0.16067222
80	0xbd4a0019	-0.0493165
81	0x3d3a4d16	0.04548367
82	0x3b3da562	0.0028937687
83	0xbd738840	-0.05945611
84	0xbd26edfe	-0.04075431
85	0x3d873707	0.066022925
86	0x3ca22901	0.019794943
87	0xbd5bd102	-0.053666122
88	0x3d3e4687	0.04645398
89	0x3d4b95dc	0.049703464
90	0xbccc855d	-0.024965936
91	0x3d018feb	0.03163139
92	0xbdb310e8	-0.08743459
93	0x3d32647b	0.043552857
94	0x3d9d859b	0.07691499
95	0xbcf2dd04	-0.029646404
96	0xbc8ae1ef	-0.016953437
97	0x3d3d6cb4	0.046246246
98	0xbc91fe1a	-0.01782136
99	0x3d8a0fc9	0.06741292
100	0x3c16c5fa	0.009202475
101	0x3d863838	0.065536916
102	0xbcd1098f	-0.025517253
103	0x3ce4b4e5	0.027918288
104	0x3b1e50e5	0.0024157104
105	0x3cdb95ed	0.026804889
106	0x3d9f3366	0.07773475
107	0x3dc1cffc	0.09463498
108	0x3cb23356	0.021752995
109	0xbd769605	-0.060201664
110	0xbd506964	-0.05088176
111	0x3d29b040	0.04142785
112	0xbd7417e7	-0.059593108
113	0x3cdd711d	0.027031476
114	0x3d98aa4f	0.07454359
115	0x3d374cff	0.044751164
116	0x3d2cfb6e	0.04223197
117	0x3d8835f1	0.066509135
118	0xbd9cfa14	-0.07664886
119	0xba2675b6	-0.0006349938
120	0xbdf4a66c	-0.11945805
121	0xbd7b6778	-0.061377972
122	0x3bc82232	0.006107592
123	0xbdf48c78	-0.11940855
124	0xbca20315	-0.01977686
125	0x3d3b29cf	0.04569417
126	0x3d823361	0.06357456
127	0xbd8a1b7c	-0.067435235
128	0xbd832262	-0.064030424
129	0x3bcf963c	0.006335048
130	0xbd738323	-0.059451234
131	0x3cb9c598	0.022677228
132	0xbc06dab2	-0.008230852
133	0x3cf24ad5	0.029576698
134	0xbcecdeef	-0.028914897
135	0x3c618dee	0.013766749
136	0x3d5bf469	0.053699885
137	0xbd85732d	-0.06516109
138	0x3cfc448e	0.030794408
139	0x3d6c4591	0.05768353
140	0x3d0ff1d7	0.035142746
141	0x3d4061e6	0.046968363
142	0x3b0fefab	0.0021962922
143	0xbd90c337	-0.07068484
144	0xbad16165	-0.001597446
145	0xbd9ea5e4	-0.07746485
146	0xbd7c437b	-0.061587792
147	0x3b888412	0.0041661346
148	0x3d816a12	0.063190594
149	0xbbb41a98	-0.0054963343
150	0x3d3ea453	0.04654343
151	0x3cb35fc3	0.021896249
152	0x3cbbeacf	0.022939114
153	0xbdc762ec	-0.09735665
154	0xbd26cbaa	-0.040721573
155	0xbcb158e8	-0.02164884
156	0x3d100356	0.03515943
157	0xbc435eea	-0.011924485
158	0xbd1d2ace	-0.0383709
159	0xbce78ca7	-0.02826531
160	0xb9e5aa6f	-0.00043805267
161	0x3d91081f	0.07081627
162	0xbe0129fa	-0.12613669
163	0xbcb2ac5e	-0.021810707
164	0xbc077c63	-0.008269402
165	0x3d105003	0.035232555
166	0x3d3ae19e	0.04562532
167	0xbce27377	-0.027642949
168	0x3ca4bc21	0.020109238
169	0xbd89ee6b	-0.06734928
170	0x3d799781	0.0609355
171	0x3bfe3158	0.007757347
172	0xbdc6683f	-0.09687852
173	0x3d8031ac	0.06259474
174	0xbd603056	-0.054733597
175	0xbd5d69f4	-0.054056123
176	0xbe13db09	-0.14439024
177	0x3aeff2c0	0.0018306598
178	0x3d57344a	0.0525401
179	0x3d2568e4	0.040383235
180	0xbceea6a8	-0.029132202
181	0xbda63b4d	-0.081167795
182	0xbd0e7c3c	-0.034786448
183	0x3d6dd0cb	0.05806045
184	0x3da98f54	0.08279291
185	0x3dae8e0e	0.085231885
186	0x3d5db397	0.05412635
187	0xbd6d1c69	-0.057888422
188	0x3db21c62	0.0869682
189	0x3d44f122	0.048081525
190	0xbd7120c8	-0.058869153
191	0x3d2586b7	0.040411677
192	0xbc49e2de	-0.012322156
193	0xbd56749d	-0.052357305
194	0xbc949290	-0.018136293
195	0x3ce3be69	0.027800756
196	0x3c910c6c	0.017706119
197	0x3cd760ca	0.02629127
198	0xbc39d645	-0.01134259
199	0x3c41a717	0.0118196225
200	0xbd99c978	-0.0750913
201	0xbdce880e	-0.10084544
202	0x3db0722c	0.086155266
203	0xbcd993a7	-0.026559664
204	0xbd8a7062	-0.067597166
205	0xbb0fddd6	-0.0021952293
206	0xbcc91011	-0.024543794
207	0xbd0688b3	-0.03284521
208	0xbd033508	-0.032032996
209	0xbd157246	-0.036485933
210	0x3cc07369	0.023492532
211	0x3d6a2dc2	0.057172544
212	0x3c516f17	0.012782834
213	0xbd54444f	-0.051822957
214	0x3cf58ad4	0.029973425
215	0x3d81f972	0.06346406
216	0xbc10f1d4	-0.008846719
217	0xbd71e83a	-0.05905936
218	0xba8215b3	-0.000992468
219	0xbdfb0279	-0.12256331
220	0x3d46af07	0.048506763
221	0x3d532946	0.051553033
222	0xbc88fdd3	-0.016722595
223	0x3dea53bb	0.114417516
224	0xbd776828	-0.060402066
225	0xbcf85bb1	-0.03031716
226	0x3d97b4d1	0.07407535
227	0xbd5ba8f8	-0.053627938
228	0x3ddbe4b4	0.10736981
229	0xbcb0a03a	-0.021560777
230	0xb929ce84	-0.00016194029
231	0xbb415933	-0.002950263
232	0x3cb96124	0.022629328
233	0xbbae3e5b	-0.005317492
234	0xbc2b9da2	-0.010474594
235	0x3c6b20fa	0.014351124
236	0x3a908225	0.0011025114
237	0xbd2f22d7	-0.042757835
238	0x3cecb804	0.02889634
239	0x3d52dfa7	0.051482823
240	0x3cbacb07	0.02280189
241	0x3d5b1418	0.05348596
242	0xbdd9075c	-0.10597107
243	0xbda6ced4	-0.08144918
244	0xbd70b0f4	-0.058762506
245	0xbd916c68	-0.07100755
246	0xbaf869c5	-0.001895242
247	0xbd2e3836	-0.042534076
248	0xbd151683	-0.036398422
249	0x3bebbce0	0.0071941465
250	0xbe35334c	-0.1769535
251	0x3d78b4ff	0.060719486
252	0x3ba79e7e	0.0051153293
253	0x3d0a7eea	0.03381244
254	0xbd26bbdb	-0.040706497
255	0x3d0b58dc	0.03402029

fc2.bias f4 [128]
0	0xbcc858b6	-0.024456363
1	0x3cb861c8	0.022507563
2	0x3d80c146	0.06286864
3	0xbc94db58	-0.018170998
4	0xbc86fe2f	-0.016478626
5	0xbd5f1e49	-0.05447224
6	0xbdc39dc6	-0.09551577
7	0xbd328132	-0.04358024
8	0x3d47902f	0.04872149
9	0xbd01d0c3	-0.03169323
10	0x3d0dd8c3	0.03463055
11	0xbc4f8117	-0.012665055
12	0x3d94c12c	0.07263407
13	0x3d557e8c	0.052122638
14	0x3ca9f948	0.02074875
15	0x3d2d5d0d	0.04232507
16	0xbd920e12	-0.0713159
17	0x3d9194c0	0.0710845
18	0xbc8e2b03	-0.017354494
19	0x3c656451	0.014000968
20	0xbde1fa27	-0.11034041
21	0x3c9e4e97	0.019324584
22	0xbd6e650f	-0.058201846
23	0xb9e8deb9	-0.0004441643
24	0xbd6eeb78	-0.05833003
25	0xbda176a4	-0.07883957
26	0x3c8c943e	0.017160531
27	0xbb913ae5	-0.0044320696
28	0xbcfef733	-0.031123733
29	0xbdb4da65	-0.08830718
30	0xbdbeb8b4	-0.09312573
31	0xbd89be7a	-0.06725784
32	0x3d3b470d	0.045722056
33	0x3dd700cd	0.104981996
34	0xbc788eec	-0.015170794
35	0x3d9fe9df	0.07808279
36	0x3ca6a6d4	0.020343222
37	0xbda70d12	-0.0815679
38	0xbdab160b	-0.08353814
39	0xbdd75a5b	-0.10515281
40	0x3d17dbee	0.037074976
41	0xbc33bb04	-0.010969881
42	0xbdc06beb	-0.09395584
43	0xbd4d0dc5	-0.05006196
44	0xbc0710fc	-0.0082437955
45	0xbd4e3b07	-0.05034926
46	0xbca50704	-0.020144947
47	0xbd23a919	-0.039956186
48	0x3cee4c13	0.02908901
49	0x3ba7112e	0.0050984835
50	0xbd5ab0e8	-0.053391367
51	0xbd1101f2	-0.035402246
52	0x3c913bdd	0.01772874
53	0x3ce3c5d2	0.027804289
54	0xbbdc0e94	-0.006715605
55	0x3c8b2258	0.01698415
56	0x3ced9109	0.028999822
57	0x3d0f61ba	0.03500531
58	0x3c1461c0	0.009056509
59	0xbd7b6eaf	-0.061384853
60	0xbde3a157	-0.111147575
61	0x3d83f58b	0.06443318
62	0xbd24364c	-0.040090844
63	0x3cf418d8	0.029797003
64	0x3d064131	0.032777015
65	0xbd0e07d1	-0.034675423
66	0xbd1041f5	-0.03521915
67	0xbbf7c5e2	-0.0075614313
68	0xbc7da226	-0.015480554
69	0xbd7afce4	-0.06127633
70	0xbdd60b3f	-0.10451364
71	0xbd8595cb	-0.06522711
72	0xbb1a6bd2	-0.00235628
73	0x3a5e076f	0.00084697356
74	0xbe12ef17	-0.14349018
75	0x3d0ed46f	0.03487056
76	0xbd7b9d7b	-0.061429482
77	0xbd106720	-0.035254598
78	0x3c8703d5	0.01648132
79	0xbdb166ba	-0.08662172
80	0xbc89619f	-0.016770182
81	0xbde5db8d	-0.112235166
82	0xbe0d4662	-0.1379638
83	0x3c22cd9a	0.009936715
84	0xbd5d42b6	-0.0540187
85	0xbd12fde5	-0.035886664
86	0x3c884ebf	0.016639112
87	0xbb221a1e	-0.0024734805
88	0xbd014876	-0.031563245
89	0xbbfaeab5	-0.007657374
90	0x3a03efa0	0.00050329603
91	0x3d723c1e	0.059139363
92	0xbcf7b734	-0.030238725
93	0x3bfdfb60	0.0077509135
94	0xbd3c1c4f	-0.045925435
95	0xbca5b108	-0.020226017
96	0x3cc31515	0.023813764
97	0xbdce50c7	-0.10074001
98	0x3d1a1597	0.037618246
99	0x3c31b2a0	0.01084581
100	0x3c83b5a3	0.016077822
101	0xba80ade5	-0.000981745
102	0xbdb821f3	-0.0899085
103	0x3d0961db	0.033540588
104	0xbd9f3edb	-0.077756606
105	0xbd851ac0	-0.06499243
106	0x3d4dd95c	0.05025612
107	0xbd56aa46	-0.05240848
108	0x3cfb47dd	0.030673916
109	0xbd8bca6e	-0.0682572
110	0xbd770ec8	-0.06031683
111	0xbdb4ee2a	-0.08834489
112	0xbd9a8997	-0.075457744
113	0x3d7dc320	0.061953664
114	0xbe11a5eb	-0.14223449
115	0xbdb9a212	-0.090641156
116	0xbdbd2a45	-0.09236578
117	0x3d0828ee	0.03324216
118	0xbcf25194	-0.029579915
119	0xbd590581	-0.052983765
120	0xbc9d2f52	-0.019187603
121	0xbdb82bba	-0.08992715
122	0xbd51ca8e	-0.05121856
123	0xbdf5803e	-0.11987351
124	0x3c562ec8	0.013072677
125	0xbc186cd8	-0.009303294
126	0x3db68f46	0.08914046
127	0xbd3bb1c0	-0.045823812

fc3.weight f4 [1, 128]
0	0xbc178ee4	-0.009250376
1	0xbcc2a9b9	-0.02376257
2	0x3cb2ce4f	0.021826891
3	0xbbc3b925	-0.0059729987
4	0xbc61ac9c	-0.013774063
5	0xbcddb3b8	-0.027063236
6	0x3ce60c86	0.028082144
7	0xbb1696e8	-0.002297813
8	0x3c0020b9	0.007820302
9	0x3c6d9217	0.014500163
10	0xbc58e4af	-0.013238116
11	0xbc1a58ac	-0.009420555
12	0xbc84ee6e	-0.016226973
13	0xbc52267a	-0.012826556
14	0x3c4a5f5a	0.012351835
15	0xbca57dc3	-0.02020157
16	0xbc90f605	-0.017695436
17	0x3c6f1ff7	0.014595023
18	0xbc6ccbb8	-0.014452867
19	0x3cb2101b	0.021736195
20	0xbcda44fc	-0.026644222
21	0xbc71e282	-0.014763476
22	0xbcfd8c1e	-0.030950602
23	0x3c4e5068	0.0125924125
24	0xbc2e3d06	-0.010634666
25	0x3cdfdea6	0.027327847
26	0xbcf46570	-0.029833525
27	0x3b896139	0.004192498
28	0xbb6a842b	-0.0035784345
29	0xbc5e0e1f	-0.013553171
30	0x3d6cdf0f	0.057829913
31	0x3c86fa24	0.016476698
32	0xbd04754f	-0.032338437
33	0x3c67b004	0.0141410865
34	0x3c98621a	0.018601466
35	0xbc63311c	-0.013866689
36	0x3c874aa2	0.01651508
37	0xbc6a0b6f	-0.014284953
38	0x3cda7fa6	0.026672196
39	0x3d5e1cd8	0.054226726
40	0x3ced4362	0.028962795
41	0x3bcc8827	0.0062418166
42	0x3d5c5f80	0.053802013
43	0x3cceb5b3	0.025233125
44	0xbc91b9f0	-0.017788857
45	0x3c939222	0.018014017
46	0x3c152cc6	0.009104913
47	0x3c635158	0.013874374
48	0xbc65b7a5	-0.014020835
49	0x3cc52e6c	0.024069987
50	0xbca0a092	-0.019607816
51	0xbc7a78ac	-0.0152875595
52	0x3c8b82c9	0.017030137
53	0x3c99e002	0.018783573
54	0x3d016a72	0.031595655
55	0x3cd85dab	0.026411852
56	0xbc947030	-0.018119901
57	0xbc392629	-0.011300602
58	0xbc6d4582	-0.014481904
59	0xbc74ded9	-0.014945709
60	0xbcfb5dd5	-0.030684391
61	0xbcf0a2b9	-0.029374467
62	0x3ca1a900	0.019733906
63	0x3b7c55fe	0.0038503404
64	0x3d252728	0.040320545
65	0xbc694ee0	-0.014239997
66	0xbc363be9	-0.011122682
67	0x3c647eb8	0.013946228
68	0xbc33aa1b	-0.010965849
69	0x3c54ed7e	0.012996076
70	0xbcd149ff	-0.02554798
71	0xbcf6ab9b	-0.030111125
72	0x3ccc1901	0.024914267
73	0x3d387106	0.045029663
74	0xbd8bbded	-0.06823335
75	0xbb4feddb	-0.0031727466
76	0xbc995fb7	-0.018722398
77	0x3c619a0d	0.013769639
78	0x3c26e2e9	0.010185936
79	0x3ccda181	0.025101425
80	0xbc4c74da	-0.012479031
81	0xbca7c45e	-0.020479377
82	0x3ce6c8f8	0.028172001
83	0x3c88d761	0.016704263
84	0xbce307ed	-0.02771374
85	0x3c1f13aa	0.009709278
86	0xbc0718bb	-0.008245642
87	0xbc3d33ea	-0.011548022
88	0x3c6f34a5	0.014599954
89	0x3c8c59e0	0.0171327
90	0xbc68e27d	-0.014214155
91	0x3ca3f38c	0.020013593
92	0x3ce05d33	0.02738819
93	0xbca194f4	-0.019724347
94	0xbcbb506e	-0.0228655
95	0xbc9ecc37	-0.019384487
96	0x3c5e5174	0.013569225
97	0xbd386a86	-0.045023464
98	0xbc20bdd2	-0.009810882
99	0xbbffb1ef	-0.0078031938
100	0x3c9f9eb8	0.019484863
101	0xbc56adba	-0.013102943
102	0xbcd8f6d9	-0.026484894
103	0xbcaf8c61	-0.021429243
104	0xbbce623f	-0.006298333
105	0x3dc6299a	0.096759036
106	0xbb930b84	-0.0044874568
107	0xbc21bbf2	-0.00987147
108	0x3cd186a8	0.025576904
109	0x3cefdebc	0.029281013
110	0x3caad99d	0.02085572
111	0x3c762683	0.01502383
112	0x3caaa3c0	0.020830035
113	0x3cd1b91b	0.02560096
114	0x3d32fc45	0.043697614
115	0xbd383608	-0.044973403
116	0x3d8e25ec	0.06940827
117	0xbbf8887f	-0.007584631
118	0xbcc1e8ad	-0.023670519
119	0x3d01d2f1	0.03169531
120	0x3d1b5fd6	0.037933193
121	0xbc4c5ba6	-0.012473023
122	0x3c86ff44	0.016479142
123	0x3e889e47	0.26683256
124	0xbc3057d3	-0.010763126
125	0xbbf2dcff	-0.0074115987
126	0x3cb39421	0.02192122
127	0x3ca30e3e	0.019904252

bn1.weight f4 [128]
0	0x3f5a4ff6	0.8527826
1	0x3ea45773	0.32097968
2	0x3def91fb	0.116977654
3	0x3f85bc94	1.0448174
4	0x3e281c57	0.16417061
5	0x3f50d857	0.8158011
6	0x3df985b9	0.12183709
7	0x3db38ccb	0.087670885
8	0x3f68a2b8	0.9087329
9	0x3efbf0d3	0.49207172
10	0x3f218e2a	0.6310755
11	0x3f24dbe1	0.6439801
12	0x3f12c8cc	0.5733764
13	0x3f5de473	0.8667671
14	0x3df1b9ea	0.118030384
15	0x3f312dbc	0.6921041
16	0x3ef482f6	0.47756165
17	0x3f370bd0	0.715024
18	0x3d9488ff	0.072526924
19	0x3f09f1b5	0.5388444
20	0x3ed0a54c	0.40751112
21	0x3e965eb9	0.29369143
22	0x3e9945e5	0.29936138
23	0x3ed0663b	0.40702996
24	0x3ead229b	0.33815464
25	0x3ed19fa0	0.40942097
26	0x3e854ec2	0.2603665
27	0x3f365b79	0.71233326
28	0x3f31a3dd	0.6939066
29	0x3f03fccb	0.51557606
30	0x3f5e6dc4	0.8688624
31	0x3ebe1d20	0.37131596
32	0x3f15646f	0.58356375
33	0x3d0f7a20	0.035028577
34	0x3f509297	0.8147368
35	0x3e77ae78	0.24187648
36	0x3ee0457e	0.43803018
37	0x3e7e8bd7	0.24858032
38	0x3db9b070	0.09066856
39	0x3daa981f	0.08329796
40	0x3f29a042	0.6626016
41	0x3f349b27	0.70549244
42	0x3e570c39	0.21000756
43	0x3e99a176	0.30005997
44	0x3ef66637	0.4812486
45	0x3f70333f	0.93828195
46	0x3ec363fc	0.3816222
47	0x3f076c69	0.52899796
48	0x3f51ca93	0.8194973
49	0x3f3ee11b	0.74562234
50	0x3f6d4f4f	0.9269914
51	0x3dbe2c33	0.09285774
52	0x3d88b4df	0.066751234
53	0x3e619791	0.22030474
54	0x3f45c86c	0.77258945
55	0x3f288a0f	0.6583566
56	0x3efb9329	0.49135712
57	0x3f17dc2e	0.5932034
58	0x3f22f698	0.6365752
59	0x3ebaee9c	0.3651017
60	0x3f6d98c1	0.9281121
61	0x3f047f0d	0.51756364
62	0x3f154351	0.5830584
63	0x3e980c74	0.29697
64	0x3f3bb2dc	0.7331979
65	0x3f0ac7b6	0.54210985
66	0x3f0192a0	0.50614357
67	0x3f515d0b	0.817826
68	0x3f377589	0.7166372
69	0x3f337339	0.7009769
70	0x3f4ef25e	0.8083857
71	0x3f3c25d6	0.73495233
72	0x3e3289ec	0.17435426
73	0x3e3608d5	0.17776807
74	0x3f34a344	0.70561624
75	0x3e837c06	0.2568056
76	0x3e77b894	0.24191505
77	0x3f5b8825	0.85754615
78	0x3f569078	0.8381419
79	0x3e71e455	0.23622258
80	0x3eb51be4	0.3537284
81	0x3e82338f	0.2542996
82	0x3f392dc6	0.7233547
83	0x3f0ddde2	0.5541669
84	0x3da2e041	0.07952929
85	0x3f4bdbf8	0.7963252
86	0x3f161fe6	0.58642423
87	0x3e883d4f	0.26609275
88	0x3ef6e0c7	0.48218367
89	0x3f1049c5	0.56362563
90	0x3f01a0e9	0.50636154
91	0x3ea70bed	0.32626286
92	0x3da77091	0.08175767
93	0x3e0adc04	0.13560492
94	0x3e33e9fb	0.17569725
95	0x3f330e03	0.69943255
96	0x3f24d1a6	0.643824
97	0x3f697388	0.9119191
98	0x3e99edd1	0.30064252
99	0x3ebe1060	0.37121868
100	0x3e9818d3	0.2970644
101	0x3f827495	1.0191828
102	0x3f1d385e	0.61414135
103	0x3df3a397	0.11896437
104	0x3ed518c7	0.41620466
105	0x3e7fb4b0	0.2497127
106	0x3f1c83c4	0.6113856
107	0x3f5b4256	0.85648096
108	0x3ec87f2e	0.3915953
109	0x3d5162f2	0.051119752
110	0x3eb4c60c	0.35307348
111	0x3db8804e	0.09008847
112	0x3f778527	0.9668755
113	0x3e1693b9	0.14704789
114	0x3efa1fd6	0.48852414
115	0x3e90b2ab	0.28261313
116	0x3f068e17	0.5256056
117	0x3eaed220	0.34144688
118	0x3efdbc0a	0.49557525
119	0x3f53d26b	0.8274295
120	0x3f165517	0.58723587
121	0x3f0de816	0.5543226
122	0x3f38041c	0.7188127
123	0x3f04b229	0.5183435
124	0x3f1fd513	0.624345
125	0x3e648f4e	0.22320291
126	0x3eb9d6da	0.3629673
127	0x3d8cf086	0.06881814

bn1.bias f4 [128]
0	0xbccc9eac	-0.024978004
1	0xbcbec464	-0.023287006
2	0xbd46f184	-0.04857017
3	0x3dfa5dc3	0.12224915
4	0xbd1d2478	-0.038364857
5	0x3dc9b75b	0.098494254
6	0x3da37096	0.079804584
7	0xbce09623	-0.02741534
8	0x3ad53495	0.0016266281
9	0x3d4edeef	0.050505575
10	0xbd86e1cb	-0.06586035
11	0xbcc00735	-0.023440937
12	0x3b13ef7f	0.002257317
13	0x3ca99b6c	0.020703994
14	0xbc159e72	-0.009132015
15	0x3d93fd8b	0.07226094
16	0x3dab2e3a	0.083584264
17	0xbc6b00ca	-0.01434345
18	0xbd17ce9d	-0.037062276
19	0xbd526ac5	-0.051371355
20	0xbcac229f	-0.021012602
21	0x3d10d05e	0.035354964
22	0xbd31dcc9	-0.043423448
23	0x3cd6d5e1	0.026225032
24	0xbc5e44df	-0.013566225
25	0xbc9cede0	-0.019156396
26	0xbd5dbb70	-0.054133832
27	0x3de267b5	0.11054937
28	0x3d829052	0.06375183
29	0x3d84bf12	0.06481756
30	0x3db2eef3	0.08736982
31	0xbd28bea3	-0.04119743
32	0x3d7dbb15	0.061945993
33	0x3d8fe6d7	0.07026451
34	0x3d034583	0.032048713
35	0x3c7f8590	0.015595809
36	0x3daee886	0.08540444
37	0x3d8413fb	0.064491235
38	0x3c73ad7c	0.014872905
39	0xbc5a9762	-0.013341757
40	0x3cdbda62	0.026837531
41	0x3daa5fbf	0.08319043
42	0x3dab0c62	0.08351971
43	0xbd84dd32	-0.06487502
44	0xbd22eb07	-0.03977492
45	0x3d2bf5ce	0.041982464
46	0x3c95152c	0.018198572
47	0x3dc00df2	0.0937766
48	0xbd7f4391	-0.062320296
49	0x3d4e98fa	0.05043886
50	0xbc0c0122	-0.008545192
51	0x3cfaef26	0.030631613
52	0xbd4fc7f4	-0.0507278
53	0x3c93dec1	0.018050553
54	0x3d6d3d31	0.057919685
55	0xbd2e8dda	-0.04261575
56	0xbd88cdc9	-0.066798754
57	0x3d549ffa	0.051910378
58	0xbe12be38	-0.14330375
59	0xbd29b8e2	-0.041436084
60	0x3d9c183b	0.07621809
61	0x3acde8ec	0.0015709675
62	0x3cf9d8f3	0.030498957
63	0x3d1fd0f9	0.03901765
64	0x3b3c1d01	0.002870381
65	0xbce31006	-0.027717602
66	0x3e38511a	0.17999688
67	0x3cb37d32	0.021910284
68	0x3da5458a	0.08069904
69	0x3c2fe118	0.010734819
70	0xba38d11d	-0.0007050203
71	0x3cddfd45	0.027098307
72	0x3cc61a41	0.02418244
73	0x3d99e1b1	0.0751375
74	0x3d8ac7ea	0.06776412
75	0xbd0ed989	-0.034875426
76	0xbc21abff	-0.009867667
77	0x3b8fca25	0.004388111
78	0xbd4f43e8	-0.05060187
79	0x3c80883f	0.015689967
80	0xbd3aef85	-0.04563858
81	0xbbb7967d	-0.0056026564
82	0x3d3e360f	0.046438273
83	0x3d835e1a	0.06414433
84	0xbd3ac19e	-0.045594804
85	0xbd30d19d	-0.043168653
86	0x3d963c4d	0.0733572
87	0xbcaeef8c	-0.02135446
88	0xbd9b2175	-0.07574741
89	0xbcabafa7	-0.020957781
90	0xbd7c3c1c	-0.061580762
91	0x3cf1d626	0.02952106
92	0x3c57bae0	0.013167113
93	0xbbbeff62	-0.005828784
94	0xbc3bd447	-0.011464185
95	0x3d2f82a4	0.042849198
96	0x3c2ccf4f	0.010547473
97	0x3dacdf62	0.084410444
98	0x3d4759c6	0.0486696
99	0x3d66035d	0.05615555
100	0x3d984519	0.07435054
101	0x3cc9018e	0.024536874
102	0xbb90dc9d	-0.0044208304
103	0x3d4c0cf7	0.04981705
104	0x3b9570e5	0.004560577
105	0xbc9b108d	-0.01892879
106	0xbc973510	-0.01845792
107	0x3dae74b8	0.08518356
108	0xbd425a32	-0.0474493
109	0x3d43dd36	0.047818385
110	0x3c15bffe	0.009140013
111	0xbd10fc8c	-0.035397097
112	0x3c04a95c	0.008097019
113	0x3d7ae402	0.0612526
114	0x3d287b2d	0.041133095
115	0x3c691d95	0.014228244
116	0xbd1a77af	-0.037711795
117	0xbbf430c1	-0.007452101
118	0xbc5fd835	-0.013662388
119	0x3d7640c7	0.06012037
120	0x3d486099	0.048920248
121	0x3dac559c	0.08414766
122	0xbb65ded5	-0.0035075445
123	0x3d680993	0.056649756
124	0x3c463b24	0.012099061
125	0xbdb48a9f	-0.088155024
126	0x3dea9614	0.114544064
127	0x3d21830f	0.039431628

bn1.running_mean f4 [128]
0	0x3f89f60f	1.0778216
1	0x3f0b101e	0.5432147
2	0x3f2b38ce	0.6688355
3	0x4003aadd	2.0573037
4	0x3e63ae51	0.22234465
5	0x3edb402b	0.42822394
6	0x3f8b8db8	1.0902624
7	0x3f6d4e51	0.92697626
8	0x403a26c9	2.9086173
9	0x3d0d6d5f	0.034528133
10	0x3f5540aa	0.83301795
11	0x3e158e7a	0.14605132
12	0x3face9f6	1.3508899
13	0x3fdded4c	1.7338042
14	0x3f0f4659	0.55966717
15	0x3ffa69a5	1.956349
16	0x3f6aa3f0	0.916564
17	0x3f9463b5	1.1592928
18	0x3f826c40	1.0189285
19	0x3dabfd73	0.08397951
20	0x3fdc373d	1.7204357
21	0x3f39e935	0.7262147
22	0x3e0e7309	0.1391107
23	0x3fd62f9b	1.6733278
24	0x3d9f6b09	0.07784087
25	0x3f120b59	0.57048565
26	0x3e90f2c9	0.2831023
27	0x3f265d53	0.6498615
28	0x3f48b91c	0.78407454
29	0x3f0e6176	0.55617464
30	0x3d44faf1	0.04809088
31	0x401b3e1d	2.425666
32	0x3f484994	0.7823727
33	0x3e627b33	0.2211731
34	0x3f9facef	1.247465
35	0x3fbc3133	1.4702514
36	0x3fc17396	1.5113399
37	0x3fd961eb	1.6983007
38	0x3f883b86	1.0643165
39	0x3f70273e	0.9380988
40	0x3fb510e9	1.4145786
41	0x3ef6f109	0.4823077
42	0x3f517c85	0.81830627
43	0x3f3cffad	0.7382763
44	0x3fab702c	1.3393607
45	0x3fb38000	1.4023438
46	0x3e09a815	0.13443024
47	0x3fc821ff	1.5635375
48	0x3f565cce	0.8373536
49	0x3effb60e	0.49943584
50	0x400853cd	2.1301148
51	0x3fb5bc0e	1.4198015
52	0x3ef42962	0.47687823
53	0x3c38d04b	0.01128013
54	0x3fb9b891	1.450945
55	0x3f9cda9a	1.2254212
56	0x3f57612c	0.8413265
57	0x3f2e9449	0.68195015
58	0x3fb992d2	1.4497931
59	0x3e09e969	0.13467945
60	0x3f11f095	0.57007724
61	0x3f1961ff	0.59915155
62	0x3f7d18f9	0.9886623
63	0x3f99cbec	1.2015357
64	0x3e4eda12	0.20200375
65	0x3f6abd42	0.91695035
66	0x3ff49ccf	1.9110354
67	0x3f23d32c	0.639941
68	0x3f161cd6	0.5863775
69	0x3fdea889	1.7395183
70	0x3f020095	0.5078214
71	0x3dd7061d	0.10499213
72	0x3f4c8a0f	0.7989816
73	0x3e16105e	0.14654681
74	0x3fc98c28	1.5745897
75	0x3f8a0808	1.0783701
76	0x3fc7c23a	1.5606148
77	0x3e1cd6eb	0.1531636
78	0x3ebb640c	0.36599767
79	0x3bc3fc51	0.005981006
80	0x3fa68f61	1.3012506
81	0x3f2936ae	0.6609906
82	0x3f8e239b	1.1104616
83	0x3fbf074a	1.49241
84	0x3f30bcf4	0.6903832
85	0x3f1a9297	0.6037993
86	0x3f385959	0.72011334
87	0x3b5a54d5	0.0033314724
88	0x3e86b258	0.2630794
89	0x3e8a9413	0.27066097
90	0x3da5a12e	0.08087383
91	0x3dfc8f28	0.123319924
92	0x3e0801b4	0.132819
93	0x3ef0ff5e	0.4706983
94	0x3f02e234	0.5112641
95	0x3f15bba4	0.5848944
96	0x3fd97ba9	1.6990863
97	0x3f1cb9e8	0.6122117
98	0x3ce871fa	0.02837466
99	0x3ec2a5f3	0.38017234
100	0x3ffc7f03	1.9726261
101	0x3e6149d5	0.22000821
102	0x3ed2ec65	0.4119598
103	0x3f61a632	0.8814422
104	0x3f658f4a	0.89671767
105	0x3dce6c55	0.100792564
106	0x3ea56b1a	0.32308275
107	0x3fd5499c	1.6663089
108	0x3e2de2c4	0.16981035
109	0x3d3b4f01	0.04572964
110	0x3ebd6ebc	0.36998546
111	0x3e4318b1	0.19052388
112	0x3e786dc1	0.24260618
113	0x3f1d45c6	0.6143459
114	0x3edc6a92	0.43050057
115	0x3dd94eb4	0.106107146
116	0x3f401603	0.7503359
117	0x3f0ba7a1	0.54552656
118	0x3fb8a7c3	1.4426197
119	0x3f396094	0.7241299
120	0x3e6e30f7	0.23260866
121	0x3fff95a9	1.9967548
122	0x3f9ffb22	1.2498515
123	0x3f6d39f7	0.9266657
124	0x3f5a19cb	0.85195607
125	0x3eea8e6c	0.45811784
126	0x3f42fbf7	0.7616572
127	0x3f648fa5	0.89281684

bn1.running_var f4 [128]
0	0x3ed9f66b	0.42570814
1	0x3fcc6d87	1.5970925
2	0x3f475a62	0.7787229
3	0x40bca886	5.8955717
4	0x3e928f38	0.28624892
5	0x3f24f014	0.6442883
6	0x400fcdfe	2.2469478
7	0x40081738	2.1264172
8	0x40985210	4.7600174
9	0x3ccd7ac9	0.025082963
10	0x40010244	2.0157633
11	0x3e330909	0.17483915
12	0x407d6219	3.9591124
13	0x40d33c81	6.6011357
14	0x3f99e968	1.2024355
15	0x408ea1dc	4.457258
16	0x3fc9b9e3	1.5759853
17	0x404a82de	3.1642375
18	0x3feb3422	1.8375285
19	0x3dc9751b	0.09836789
20	0x403cd50b	2.950503
21	0x3fde5adc	1.7371478
22	0x3dd05990	0.10173333
23	0x4093f3b0	4.623497
24	0x3d0375c8	0.032094747
25	0x3fd0908f	1.6294116
26	0x3ebee592	0.37284523
27	0x3f7863ba	0.9702717
28	0x3f97168e	1.1803758
29	0x3fd03f7f	1.6269377
30	0x3cfd6dd0	0.030936152
31	0x40380b9f	2.8757093
32	0x3f65f063	0.89819926
33	0x3e97b155	0.2962748
34	0x40386e7e	2.881744
35	0x40362523	2.8460166
36	0x4080f272	4.0295954
37	0x4093bfe8	4.617176
38	0x404ddccd	3.2166016
39	0x3fecc12d	1.8496453
40	0x3fb4e43c	1.4132152
41	0x3efe0e68	0.49620366
42	0x3fe714de	1.8053243
43	0x40180ad5	2.3756611
44	0x3fb4ef10	1.4135456
45	0x4069587a	3.6460252
46	0x3d09f0c1	0.033676866
47	0x3fd73e4a	1.6815884
48	0x3f96f301	1.1792909
49	0x3f199b75	0.60002834
50	0x40910776	4.5321608
51	0x4035319f	2.8311536
52	0x3ec5672c	0.38555276
53	0x3c1c0bc2	0.009524288
54	0x40911a4e	4.534461
55	0x4072ff04	3.796815
56	0x3f8f73f4	1.1207261
57	0x400bc7d9	2.1840727
58	0x4076df88	3.8573933
59	0x3dcde70f	0.100538366
60	0x3edf2ef2	0.43590504
61	0x3f8de864	1.1086545
62	0x3ffa4076	1.9550922
63	0x407482fd	3.820495
64	0x3e1522d2	0.14564064
65	0x40080b8e	2.1257052
66	0x40bf6e0c	5.9821835
67	0x3faa04fa	1.3282769
68	0x3edaccf7	0.427345
69	0x40d6078f	6.6884227
70	0x3fb30908	1.3987131
71	0x3ce5a603	0.028033262
72	0x3fa426cb	1.2824339
73	0x3e8006c6	0.25005168
74	0x40833f16	4.101451
75	0x3ff2ea5d	1.8977772
76	0x40b6cf6b	5.7128196
77	0x3d85ff3f	0.06542825
78	0x3eb004bf	0.3437862
79	0x3aec7b7f	0.0018042176
80	0x3fe685ca	1.8009579
81	0x3fae2654	1.3605447
82	0x3ff95a86	1.948075
83	0x40badcef	5.8394694
84	0x3f9a8b43	1.2073749
85	0x3f553600	0.8328552
86	0x3f5a12c0	0.8518486
87	0x3a67b633	0.00088391005
88	0x3e91c82a	0.28473026
89	0x3e923fdc	0.28564346
90	0x3db3d8ac	0.08781561
91	0x3d1d00ba	0.03833077
92	0x3dd2dc54	0.102959305
93	0x3f1c5d5e	0.6107997
94	0x3f98ad0d	1.1927811
95	0x3f93d41a	1.1549103
96	0x409c456a	4.8834734
97	0x3f3d87b9	0.7403522
98	0x3ce46b17	0.027883096
99	0x3f314589	0.6924673
100	0x4067f19f	3.6241224
101	0x3d4e3e1b	0.050352197
102	0x3f3b9a90	0.7328272
103	0x4017d624	2.372445
104	0x3fb46da8	1.4095964
105	0x3d86912a	0.065706566
106	0x3df37c5d	0.11888955
107	0x40878326	4.2347593
108	0x3dbf5497	0.09342306
109	0x3d1e4667	0.03864136
110	0x3e92dbf2	0.2868343
111	0x3e83f2f3	0.25771293
112	0x3e3bf3a6	0.18354663
113	0x3f0e3d4c	0.5556228
114	0x3f59e7e7	0.8511948
115	0x3dc2a0e8	0.09503347
116	0x3f8ce3dc	1.1007037
117	0x3fed87ef	1.8557109
118	0x4039aaa4	2.90104
119	0x3f92bc86	1.1463783
120	0x3d25e957	0.040505733
121	0x409b9acd	4.8626466
122	0x404accb5	3.1687443
123	0x400afcad	2.171672
124	0x401f79bf	2.4918058
125	0x3edb0abf	0.42781636
126	0x3fa0ecbf	1.2572249
127	0x3f82f177	1.0229939
